Assets/Models/BoatAgent.onnx (onnx, 76831 bytes, 9 tensors)

discrete_act_size_vector f4 [1, 2]
0	0x40400000	3.0
1	0x40400000	3.0

network_body._body_endoder.seq_layers.0.weight f4 [128, 6]
0	0x3ea77d16	0.3271262
1	0x3f099cca	0.53754866
2	0xbd7405c3	-0.059575807
3	0x3ec4a00b	0.38403353
4	0xbf27ca74	-0.65543294
5	0xbf435dce	-0.7631501
6	0xbe995d90	-0.29954195
7	0xbaa8cb71	-0.0012878013
8	0xbf20a84e	-0.6275681
9	0x3ea15d2e	0.31516403
10	0xbe1348ad	-0.14383192
11	0xbdb66b36	-0.089071676
12	0xbe9f3583	-0.31095514
13	0xbecc2c5a	-0.39877588
14	0x3dbc5553	0.09195962
15	0x3e98a382	0.29812247
16	0x3f0bc473	0.5459663
17	0x3eb8b770	0.36077452
18	0x3ea085fc	0.31352222
19	0xbf2afff0	-0.6679678
20	0xbf366011	-0.71240336
21	0x3e551337	0.20808111
22	0xbe6a971c	-0.22909206
23	0xbe93b0d4	-0.28845847
24	0xbf02ca10	-0.5108957
25	0x3e960fa3	0.29308805
26	0x3f7d4ac9	0.9894224
27	0xbf5f39b0	-0.871974
28	0xbf4b79d1	-0.7948275
29	0x3eeab795	0.45843187
30	0xbec95487	-0.39322302
31	0xbf098f54	-0.53734326
32	0x3f36de1f	0.7143268
33	0xbe2789d5	-0.16361172
34	0xbe4e5295	-0.2014869
35	0xbf4a1869	-0.78943497
36	0xbd9b5e74	-0.07586375
37	0x3e188793	0.14895467
38	0xbe59d7a5	-0.21273668
39	0xbe811eb4	-0.25218737
40	0x3eebea26	0.4607708
41	0x3ece9a06	0.40351886
42	0x3e77f5bf	0.24214838
43	0x3f9c41a3	1.2207531
44	0xbe2cffb3	-0.16894417
45	0x3c2af1d4	0.010433633
46	0xbe93bfa5	-0.2885715
47	0xbf590bf0	-0.8478384
48	0xb94af9da	-0.00019357298
49	0xbe100971	-0.14066102
50	0x3e93f1d8	0.2889545
51	0x3dd88966	0.10573082
52	0xbf4b7167	-0.79469913
53	0x3f04cb0a	0.51872313
54	0xbd8967e6	-0.0670927
55	0x3eb5872b	0.35454687
56	0x3ec987f3	0.39361534
57	0xbf1a6a1b	-0.60318154
58	0xbed8c169	-0.4233506
59	0x3c2f7fb3	0.010711598
60	0x3f0b50da	0.54420245
61	0xbd2a161a	-0.041524984
62	0x3e6fd150	0.2341969
63	0x3e91d50b	0.2848285
64	0xbf12e99a	-0.573877
65	0x3ef2eb68	0.47445226
66	0xbf3d4e0c	-0.73947215
67	0x3f212784	0.6295092
68	0xbec13f78	-0.37743735
69	0x3f1d71c6	0.6150173
70	0x3dce5aec	0.10075936
71	0x3ebde9d2	0.37092453
72	0x3ec3dbca	0.38253623
73	0xbecb7c86	-0.3974344
74	0x3e99cfd4	0.30041373
75	0x3bef0992	0.007294842
76	0xbf057b30	-0.52141094
77	0x3f08dcd6	0.5346197
78	0x3f08cf40	0.5344124
79	0xbe8bf358	-0.27334094
80	0x3dd335ba	0.10312982
81	0xbf233308	-0.6374974
82	0xbe6156fc	-0.22005838
83	0x3e0749c4	0.13211733
84	0xbed26d09	-0.41098812
85	0x3f2d6a65	0.6774047
86	0x3f052087	0.5200276
87	0x3f12318c	0.5710685
88	0xbdbd4c69	-0.0924309
89	0x3e115cd6	0.1419557
90	0x3f17175b	0.5902001
91	0xbe443bea	-0.1916348
92	0x3e5db322	0.21650365
93	0xbd118a40	-0.035532236
94	0x3d7b849f	0.061405774
95	0xbda1d42f	-0.07901799
96	0x3dd9065b	0.10596915
97	0x3f214303	0.62992877
98	0xbeae5eb3	-0.34056625
99	0xbdd61552	-0.10453285
100	0xbe85717a	-0.26063138
101	0xbea6ad0a	-0.32553893
102	0x3e98ec7b	0.2986792
103	0x3f6a0944	0.9142039
104	0x3f50d3ab	0.8157298
105	0xbeaaecd0	-0.333838
106	0x3ea4c2e3	0.32179937
107	0x3f2c7881	0.67371374
108	0x3e4179ec	0.18894166
109	0x3e1a37f0	0.15060401
110	0xbe559ed2	-0.20861366
111	0xbe5941b4	-0.2121647
112	0x3ef18cc4	0.47177708
113	0x3f8dfa44	1.1092
114	0x3eab1935	0.3341767
115	0x3e5d1e2b	0.2159354
116	0x3d3da7bd	0.046302546
117	0x3e41990d	0.1890604
118	0xbe393b9f	-0.1808915
119	0x3ed88fc7	0.42297193
120	0x3ef8ca61	0.48591903
121	0xbe42d7a2	-0.1902757
122	0xbf048cf0	-0.51777554
123	0x3f606f4a	0.87669814
124	0x3ee7866f	0.45219752
125	0xbde9163d	-0.11381195
126	0x3d085941	0.033288244
127	0xbe724e21	-0.23662616
128	0x3f1c8fd8	0.6115699
129	0xbe23fe08	-0.16014874
130	0xbe9ab2a5	-0.3021442
131	0x3d464438	0.048404902
132	0xbf4ad987	-0.7923817
133	0xbdf8e365	-0.12152747
134	0x3f0f9322	0.5608388
135	0x3ce13209	0.027489679
136	0x3dbf0aa2	0.093282
137	0x3c8f9a27	0.01752956
138	0x3f451c1b	0.7699601
139	0x3dd474ac	0.10373816
140	0x3d92096d	0.07130704
141	0x3efe388a	0.4965251
142	0xbe855117	-0.2603843
143	0x3ee54fbd	0.44787398
144	0xbd8299c7	-0.06376987
145	0x3f014d11	0.5050822
146	0x3e8ad8f6	0.27118653
147	0x3e62f12a	0.2216231
148	0xbeca9a18	-0.3957069
149	0x3f096bcd	0.53680116
150	0xbe7ea084	-0.2486592
151	0x3e90ad4a	0.2825721
152	0x3ed28ec4	0.41124547
153	0x3e4fb386	0.20283327
154	0xbf33caee	-0.7023152
155	0x3f232343	0.6372568
156	0x3dd55756	0.10417049
157	0xbc625d57	-0.013816199
158	0xbf8593f6	-1.0435779
159	0xbe023645	-0.12716015
160	0xbc978a15	-0.01849846
161	0x3de9050b	0.11377915
162	0xbf300613	-0.6875927
163	0x3e029f20	0.12756014
164	0xbeaaa5c9	-0.3332961
165	0x3e7dac27	0.24772702
166	0x3e361a3a	0.17783442
167	0xbebc81a3	-0.36817655
168	0xbe7cb284	-0.24677473
169	0x3ed62932	0.41828305
170	0x3e20e10d	0.1571085
171	0x3cad6d40	0.021170259
172	0xbf64d796	-0.8939146
173	0x3da73ef4	0.08166304
174	0x3ec80a35	0.39070287
175	0xbf189a62	-0.5961057
176	0xbd906485	-0.070504226
177	0xbed1e785	-0.40996948
178	0x3f3ac93e	0.7296332
179	0xbe9b9143	-0.30384263
180	0x3dab28ec	0.083574146
181	0x3f3caf1d	0.737047
182	0xbe86fb5f	-0.26363656
183	0xbf56a244	-0.8384135
184	0xbf0eee49	-0.55832344
185	0xbe99f20b	-0.30067477
186	0xbecd910f	-0.40149733
187	0xbeac84d0	-0.33695078
188	0x3ee99443	0.45620927
189	0x3f0d4d96	0.5519651
190	0x39faf022	0.0004786263
191	0x3d360f55	0.044448216
192	0x3d2a5158	0.04158148
193	0x3efdcbb9	0.4956949
194	0xbe0583bf	-0.13038538
195	0xbe25ca47	-0.16190444
196	0x3e4c7b24	0.1996885
197	0xbd5791c9	-0.052629266
198	0xbe60c154	-0.21948749
199	0xbe9c7d8b	-0.30564532
200	0xbe948f29	-0.29015473
201	0xbe07e227	-0.13269864
202	0xbcce517d	-0.025185341
203	0xbf18e131	-0.59718615
204	0x3e7ff63a	0.24996272
205	0xbd991329	-0.07474358
206	0x3ec9bf9a	0.39403993
207	0x3ea55fba	0.32299596
208	0xbe73f6e6	-0.23824653
209	0x3ed96646	0.4246084
210	0x3e491e34	0.19640428
211	0x3eadd700	0.33953094
212	0x3eda1c67	0.42599794
213	0xbeaf82e1	-0.3427954
214	0xbe2d920a	-0.1695024
215	0x3e841ad8	0.2580173
216	0xbe2b4914	-0.16727096
217	0x3f676dc6	0.90401876
218	0x3d7255a8	0.05916372
219	0x3ec0a2b9	0.37624148
220	0xbeb325cd	-0.34989777
221	0x3e632b3a	0.22184458
222	0xbeb12135	-0.34595647
223	0xbd8813de	-0.06644414
224	0xbdbca53e	-0.09211205
225	0xbed4e5d2	-0.4158159
226	0x3da98312	0.08276953
227	0xbea0c875	-0.31402937
228	0xbe5cb957	-0.21555077
229	0xbf1ac9e4	-0.6046431
230	0x3d303207	0.04301646
231	0xbdf13373	-0.11777391
232	0x3eb049db	0.34431347
233	0xbef31f6f	-0.4748492
234	0xbf6053f9	-0.8762813
235	0x3e2be60c	0.16786975
236	0x3f091be2	0.5355817
237	0xbdb9ac80	-0.09066105
238	0xbf401783	-0.75035876
239	0xbd6da013	-0.058013987
240	0xbf5e7cf4	-0.86909413
241	0xbe90f8a9	-0.28314713
242	0x3e79cf98	0.24395597
243	0x3f21910b	0.63111943
244	0x3f247ffe	0.642578
245	0xbcffd68e	-0.031230237
246	0xbf0e0195	-0.55471164
247	0x3d375b44	0.044764772
248	0xbf1bfd78	-0.6093364
249	0x3dffdfce	0.12493859
250	0x3e2dd384	0.16975218
251	0x3f122c4e	0.57098854
252	0x3dc416a0	0.09574628
253	0xbcba1716	-0.022716086
254	0xbd9c499a	-0.07631226
255	0xbd16ba54	-0.03679879

network_body._body_endoder.seq_layers.0.bias f4 [128]
0	0xbb21e48e	-0.002470288
1	0x3ae3988b	0.0017364187
2	0x00000000	0.0
3	0x3a9f98ec	0.0012176312
4	0x00000000	0.0
5	0xbb6e8101	-0.003639281
6	0x00000000	0.0
7	0xbb2358fb	-0.0024924863
8	0x00000000	0.0
9	0x910a44ac	-1.0907442e-28
10	0x00000000	0.0
11	0x00000000	0.0
12	0x00000000	0.0
13	0x00000000	0.0
14	0x00000000	0.0
15	0xbad231c0	-0.0016036555
16	0xbb343f93	-0.0027503713
17	0x00000000	0.0
18	0x00000000	0.0
19	0x00000000	0.0
20	0x3aa9316c	0.0012908406
21	0x8e61535a	-2.7773524e-30
22	0x320f0a92	8.326099e-09
23	0x00000000	0.0
24	0x00000000	0.0
25	0x00000000	0.0
26	0x00000000	0.0
27	0x3a96c901	0.0011503996
28	0x11cae2ba	3.2009712e-28
29	0x3ab7f9a0	0.0014036186
30	0xbb0ba198	-0.0021306034
31	0x3a924ca1	0.0011161753
32	0x3afbd26a	0.0019212489
33	0xbb23897d	-0.0024953776
34	0x00000000	0.0
35	0x00000000	0.0
36	0x00000000	0.0
37	0xbb0fe4aa	-0.0021956363
38	0x3b54a01a	0.003244406
39	0xbac41481	-0.0014959724
40	0x3adeae95	0.0016989285
41	0x00000000	0.0
42	0x00000000	0.0
43	0x3a83d6a8	0.0010058479
44	0x00000000	0.0
45	0x00000000	0.0
46	0x00000000	0.0
47	0xbb40e572	-0.0029433635
48	0x3ac171ee	0.0014758685
49	0x3aa0f9de	0.0012281497
50	0x00000000	0.0
51	0x3add991b	0.0016906591
52	0x00000000	0.0
53	0x00000000	0.0
54	0xbb2b7209	-0.00261605
55	0x3ab6e0b2	0.0013952462
56	0xbae86f27	-0.0017733321
57	0x00000000	0.0
58	0xbac7320f	-0.0015197414
59	0x00000000	0.0
60	0xbb00d8c8	-0.0019660462
61	0x00000000	0.0
62	0x39a1edad	0.00030885395
63	0x00000000	0.0
64	0xbaff7833	-0.0019490778
65	0x00000000	0.0
66	0xbaedfe11	-0.0018157383
67	0x3abbeb87	0.001433716
68	0xbb0b6205	-0.002126814
69	0x00000000	0.0
70	0xbb193f54	-0.0023383694
71	0x00000000	0.0
72	0xbb14ae67	-0.002268696
73	0xbbb29a4e	-0.0054505235
74	0x00000000	0.0
75	0x00000000	0.0
76	0xbb01a0ed	-0.0019779757
77	0x00000000	0.0
78	0x00000000	0.0
79	0x3ada4849	0.0016653623
80	0x3ac144f4	0.0014745281
81	0xbb7af270	-0.0038291477
82	0x3b09313f	0.0020933894
83	0x1290279f	9.097445e-28
84	0x00000000	0.0
85	0x00000000	0.0
86	0xbafdab31	-0.0019353387
87	0xbaf0d856	-0.001837502
88	0x00000000	0.0
89	0xbb02422a	-0.0019875863
90	0x3ab00435	0.0013428988
91	0x00000000	0.0
92	0xbae64c05	-0.0017570263
93	0xa02dac84	-1.471075e-19
94	0x00000000	0.0
95	0x3aa31e28	0.00124449
96	0x00000000	0.0
97	0x00000000	0.0
98	0x00000000	0.0
99	0x00000000	0.0
100	0x00000000	0.0
101	0x3a7e31c3	0.0009696746
102	0xbb167563	-0.0022958152
103	0x3b0ce3b8	0.0021498036
104	0xbaf7d07e	-0.001890674
105	0xbad7a595	-0.0016452546
106	0xbb354011	-0.0027656595
107	0x3aa24205	0.0012379294
108	0xbb096194	-0.0020962702
109	0x00000000	0.0
110	0xbae214ef	-0.001724867
111	0xa3e22f01	-2.4522876e-17
112	0x3abfd4ea	0.0014635597
113	0xbb396ec2	-0.0028294777
114	0x00000000	0.0
115	0x3aef43b2	0.0018254428
116	0xbad8d424	-0.0016542715
117	0x00000000	0.0
118	0xbb7ea63e	-0.0038856412
119	0xbb070191	-0.00206003
120	0x00000000	0.0
121	0xba9754cc	-0.0011545657
122	0x00000000	0.0
123	0x3aa8597f	0.0012844055
124	0xbb010922	-0.0019689281
125	0x1da0c203	4.255225e-21
126	0x39d2aabb	0.00040181525
127	0x3ad16398	0.0015975116

network_body._body_endoder.seq_layers.2.weight f4 [128, 128]
0	0xba59c744	-0.0008307586
1	0x3e534029	0.20629944
2	0x3c90ae3e	0.01766121
3	0x3d507b7a	0.050899006
4	0xbbd3b418	-0.006460678
5	0xbe0e30bb	-0.13885777
6	0x3d8b5d7f	0.06804942
7	0xbdcacba7	-0.09902125
8	0xbd459dd8	-0.048246235
9	0xbd805b7e	-0.06267451
10	0xbdbc3f63	-0.091917776
11	0xbc6cd854	-0.0144558735
12	0xbb85ffee	-0.004089347
13	0xbdf96d28	-0.12179023
14	0x3e116516	0.14198717
15	0x3e01c9ca	0.12674633
16	0xbe3672bf	-0.1781721
17	0x3c08a23e	0.008339463
18	0x3cb6b7a6	0.022304367
19	0x3d715e77	0.05892798
20	0xbdbb9ce7	-0.09160786
21	0x3d296953	0.04136021
22	0x3c091813	0.008367556
23	0x3c015420	0.007893592
24	0xbe05cf9f	-0.13067482
25	0x3d8273df	0.06369757
26	0xbdc7d552	-0.097574845
27	0xbc1f26c6	-0.009713834
28	0x3d05c1b2	0.032655425
29	0x3bd6423c	0.0065386575
30	0x3e0d938c	0.13825816
31	0x3d99e1bd	0.07513759
32	0xbb96d12b	-0.0046025715
33	0xbd199a34	-0.037500575
34	0xbde79378	-0.11307424
35	0x3cabf411	0.020990403
36	0x3e08a04d	0.133424
37	0xbcb16f55	-0.021659533
38	0xbdf2b13e	-0.118502125
39	0x3dcd604e	0.10028134
40	0xbddacf91	-0.106841214
41	0x3e3da770	0.18520904
42	0xbe7e532d	-0.24836417
43	0xbd0e8b4d	-0.034800816
44	0xbd650ec2	-0.055922277
45	0xbd6eb4ad	-0.058277775
46	0xbc19b33a	-0.00938111
47	0xbe08286a	-0.13296667
48	0x3dd7b4ea	0.105325535
49	0x3c9b720e	0.018975284
50	0xbd2c5403	-0.042072307
51	0x3cfdc069	0.030975537
52	0x3c511063	0.012760255
53	0xbdd74789	-0.10511691
54	0x3e34bd44	0.17650324
55	0x3e1b4ca4	0.15165955
56	0xbd8067c0	-0.06269789
57	0xbd487fcf	-0.048950013
58	0x3c924bb0	0.017858356
59	0xbd18e422	-0.03732694
60	0xbc049a9e	-0.008093504
61	0x3b22ba47	0.0024830268
62	0xbdc06990	-0.093951344
63	0xbd8c7f93	-0.0686027
64	0x3e244a95	0.16044076
65	0xbdebca9c	-0.11513254
66	0xbcddde62	-0.02708358
67	0x3dfbf99f	0.12303471
68	0x3ce7acac	0.028280579
69	0xbdaa2174	-0.08307162
70	0x3ad3a8b2	0.0016148298
71	0xbdd23525	-0.10264043
72	0x3d3c4a10	0.04596907
73	0x3db494a0	0.088174105
74	0x3c204f37	0.009784511
75	0x3cab927d	0.020943874
76	0xbdd10888	-0.10206705
77	0x3e0ab201	0.13544466
78	0x3dfbeca2	0.123009935
79	0x3cef58ad	0.029217089
80	0x3d677a57	0.056513157
81	0x3d30bb60	0.043147445
82	0x3d1a4079	0.037659142
83	0xbd59bf40	-0.053160906
84	0x3d6d92bc	0.058001265
85	0xbdf9f9e6	-0.122058675
86	0xba94cc50	-0.0011352394
87	0x3c536828	0.012903251
88	0xbcdc416f	-0.02688667
89	0x3e05696d	0.13028498
90	0xbe97820d	-0.29591408
91	0xbdce465e	-0.10072015
92	0x3bde1400	0.0067772865
93	0x3db1ce13	0.08681884
94	0x3e03154e	0.12801096
95	0x3b53501f	0.00322438
96	0xbde05e68	-0.109555066
97	0xbe33affc	-0.17547601
98	0x3b2012b9	0.0024425222
99	0x3e252516	0.16127428
100	0xbd3a3447	-0.04546001
101	0xbdae620a	-0.08514793
102	0xbdd932e3	-0.10605409
103	0x3e2ace85	0.16680343
104	0xbc285441	-0.010273994
105	0x3db0c4a5	0.08631257
106	0x3db07e8e	0.086178884
107	0x3e0a3c47	0.13499556
108	0xbe5bc688	-0.21462452
109	0xbdfc1f01	-0.12310601
110	0x3d850565	0.064951696
111	0xbda64e4a	-0.08120401
112	0x3e11c6a0	0.14235926
113	0x3d0ca07c	0.034332737
114	0x3def29cc	0.11677894
115	0x3d26afce	0.040695004
116	0xbd7ad7dd	-0.06124102
117	0x3e0f10f6	0.13971314
118	0x3d8a65ac	0.067576736
119	0xbd5a9f7d	-0.053374756
120	0x3da28461	0.079354055
121	0xbd8cb47f	-0.068703644
122	0xbdf15a95	-0.11784855
123	0xbdfdd5f5	-0.12394325
124	0xbd6496c1	-0.055807833
125	0x3df4d44e	0.119545564
126	0x3d85ee04	0.065395385
127	0xbbe80314	-0.007080445
128	0x3cb6f829	0.022335129
129	0x3c6ba22b	0.014381926
130	0xbd4212cc	-0.047381207
131	0xbd29fd88	-0.041501552
132	0xbd5eec6d	-0.054424692
133	0x3d890c18	0.0669176
134	0x3cec2d16	0.028830092
135	0xbcccdf83	-0.025008922
136	0xbdad6f08	-0.08468443
137	0xbdfdd474	-0.12394038
138	0x3d362c7b	0.044476014
139	0x3d64d975	0.055871446
140	0x3d5192f1	0.051165525
141	0x3d2e0afe	0.04249095
142	0xbba28911	-0.0049601872
143	0xbcc63c4f	-0.02419868
144	0x3e67c14f	0.22632335
145	0x3e50c05a	0.20385876
146	0x3dac4de4	0.08413294
147	0xbdb36ba8	-0.08760768
148	0x3d61fcc1	0.055172686
149	0x3d818f3e	0.063261494
150	0xbcb5ca5c	-0.022191219
151	0xbdb5267a	-0.088452294
152	0xbdb606b8	-0.08888
153	0x3de249c7	0.11049228
154	0x3d70dc98	0.058804125
155	0xbd9fe273	-0.07806864
156	0xbdd32de0	-0.10311484
157	0x3d8fb2aa	0.07016499
158	0xbdec49f8	-0.11537546
159	0xbd8dab0b	-0.069173895
160	0xbd23a39f	-0.039950963
161	0x3e0bf5b2	0.13667944
162	0x3dba4991	0.09096063
163	0x3de85285	0.11343864
164	0xbd208029	-0.039184723
165	0x3dc9985a	0.09843512
166	0xbc691c34	-0.014227916
167	0xbd013f89	-0.031554732
168	0x3e390f11	0.18072154
169	0x3e22e1bf	0.15906428
170	0xbe31ca15	-0.17362244
171	0x3cf5fffa	0.030029286
172	0x3c55db4b	0.013052772
173	0x3a463813	0.00075614563
174	0x3e1c4d56	0.15263876
175	0xbd66de82	-0.056364544
176	0x3dcd0652	0.10010971
177	0x3e328221	0.17432453
178	0x3d45d135	0.04829522
179	0xbdabfd7e	-0.08397959
180	0x3d2e0f01	0.042494778
181	0xbd8429a5	-0.064532556
182	0xbcb26c91	-0.021780284
183	0xbe02c71c	-0.12771267
184	0x3e000862	0.12503198
185	0x3d946d1f	0.07247376
186	0x3da3acc1	0.079919346
187	0x3d041b0e	0.032252364
188	0xbe12d6ad	-0.14339705
189	0xbd4e9f9d	-0.050445188
190	0xbd2ba5d4	-0.041906193
191	0x3d40ca8e	0.04706817
192	0xbe1351e7	-0.14386712
193	0xbe0c9c70	-0.13731551
194	0x3d4029de	0.046914928
195	0x3d9c9e0b	0.07647332
196	0x3cb7dc26	0.022443842
197	0x3e31df36	0.17370304
198	0x3d27f054	0.04100068
199	0x3e1a254e	0.15053293
200	0x3c1f5339	0.009724432
201	0x3d5a8040	0.053344965
202	0x3e136438	0.14393699
203	0x3cdd3c3b	0.02700626
204	0xbe2971e0	-0.16547346
205	0x3e23b3d5	0.15986569
206	0xbc445263	-0.011982533
207	0x3ce5bb53	0.028043425
208	0x3d917b27	0.071035676
209	0xbde8ba49	-0.11363656
210	0x3bc1120c	0.005892044
211	0x3e387be6	0.18016014
212	0x3d623b2c	0.055232212
213	0x3cab6b46	0.020925175
214	0x3cc4eede	0.024039682
215	0x3bd1d64b	0.0064037195
216	0xbdc45be9	-0.09587843
217	0x3c3325b4	0.010934282
218	0xbdd550d0	-0.104158044
219	0x3e14424c	0.14478415
220	0xbcdb1def	-0.026747672
221	0xbda2595f	-0.079272024
222	0x3e55e34b	0.20887487
223	0xbc72d55d	-0.014821378
224	0xbc804f10	-0.0156627
225	0xbe425f00	-0.18981552
226	0x3c43bc9c	0.011946823
227	0xbc88c6c6	-0.016696345
228	0xbd96e9ac	-0.07368788
229	0x3bf00d62	0.007325814
230	0xbdcd50c8	-0.100251734
231	0x3d3b4de2	0.04572857
232	0xbe015757	-0.12630974
233	0xbc5d46bb	-0.013505633
234	0xbc942a35	-0.018086532
235	0xbd9977aa	-0.07493527
236	0xbd3fd74a	-0.046836175
237	0xbdd60f25	-0.10452107
238	0xbd881052	-0.06643738
239	0x3db7884b	0.08961543
240	0xbdb07ded	-0.086177684
241	0xbe169e2d	-0.14708777
242	0xbc890376	-0.016725283
243	0x3decb17e	0.115572914
244	0x3c853269	0.016259389
245	0xbe3c235a	-0.1837286
246	0xbd70cfd4	-0.05879195
247	0x3d8a2a10	0.06746304
248	0x3de7d216	0.113193676
249	0xbc0bdaf1	-0.008536086
250	0xbdd4e6e1	-0.10395599
251	0xbb4bfae1	-0.0031124877
252	0x3e21624b	0.15760152
253	0xbe0abc38	-0.13548362
254	0x3dd74c07	0.10512548
255	0x3dec58a7	0.115403466

network_body._body_endoder.seq_layers.2.bias f4 [128]
0	0x3acad3c8	0.0015474493
1	0x00000000	0.0
2	0x3ab59e0b	0.0013856305
3	0x00000000	0.0
4	0x00000000	0.0
5	0x00000000	0.0
6	0xbaf184ab	-0.0018426379
7	0xbb0f794a	-0.0021892362
8	0xba221505	-0.0006182942
9	0x00000000	0.0
10	0x3a8482a7	0.0010109738
11	0x3abc85bd	0.0014383119
12	0xbb14e88e	-0.0022721621
13	0x00000000	0.0
14	0x00000000	0.0
15	0xbae4bc06	-0.0017451055
16	0xba971714	-0.0011527264
17	0x00000000	0.0
18	0x3abfd4a5	0.0014635517
19	0x3ac9364c	0.0015351265
20	0x3acb3691	0.0015503933
21	0xa10184bc	-4.388257e-19
22	0xbb053525	-0.0020325866
23	0x9f13afe6	-3.127396e-20
24	0x00000000	0.0
25	0x00000000	0.0
26	0x00000000	0.0
27	0xbb9a526a	-0.0047095316
28	0xba76481d	-0.0009394901
29	0xbaf75387	-0.0018869498
30	0x00000000	0.0
31	0x3aacf620	0.001319591
32	0x00000000	0.0
33	0xba0c30cd	-0.0005347848
34	0x3b07c92b	0.002071927
35	0x00000000	0.0
36	0x00000000	0.0
37	0x3a97cd64	0.0011581597
38	0x39efb6ee	0.00045721926
39	0xbae6a424	-0.0017596525
40	0x00000000	0.0
41	0x3b1ded1d	0.002409763
42	0x00000000	0.0
43	0x3ab3d554	0.0013720193
44	0xbafcf9f3	-0.0019300565
45	0x00000000	0.0
46	0x3ac7af48	0.0015234733
47	0xbb7a19a3	-0.0038162253
48	0x3ac87344	0.0015293141
49	0x3ac4c45b	0.0015012132
50	0x399523ba	0.00028446113
51	0x00000000	0.0
52	0x00000000	0.0
53	0xba11ad89	-0.000555717
54	0x00000000	0.0
55	0x00000000	0.0
56	0xbae221da	-0.001725252
57	0x00000000	0.0
58	0xbb030259	-0.0019990413
59	0xbb0a7c37	-0.0021131167
60	0x00000000	0.0
61	0x3aca3af1	0.0015428943
62	0x00000000	0.0
63	0x12851787	8.39928e-28
64	0x3acb49c0	0.001550965
65	0x00000000	0.0
66	0xbb09de4c	-0.002103704
67	0xb8cf53e3	-9.886154e-05
68	0x00000000	0.0
69	0xbaf5f088	-0.00187637
70	0x3ac0ec8a	0.0014718932
71	0x00000000	0.0
72	0x00000000	0.0
73	0x3aaf7353	0.001338581
74	0x00000000	0.0
75	0x00000000	0.0
76	0xbb094441	-0.0020945224
77	0x00000000	0.0
78	0x3935958f	0.0001731722
79	0x00000000	0.0
80	0x00000000	0.0
81	0x00000000	0.0
82	0xbae0ae10	-0.0017141718
83	0xbae9a40e	-0.0017825381
84	0x3abf5eaa	0.0014600356
85	0x00000000	0.0
86	0x00000000	0.0
87	0x00000000	0.0
88	0xbaea46e8	-0.0017873915
89	0xbb012aad	-0.0019709275
90	0xbae1ea99	-0.0017236053
91	0x00000000	0.0
92	0x3abdb611	0.0014473816
93	0x3a5b2688	0.00083599286
94	0x3ac68328	0.0015145289
95	0x901b2097	-3.0593466e-29
96	0x00000000	0.0
97	0x3abc3230	0.0014358219
98	0x00000000	0.0
99	0x00000000	0.0
100	0xbb1acbd0	-0.0023620017
101	0x3b3d26a9	0.0028862155
102	0x3abc063f	0.0014345123
103	0xbaf11dce	-0.0018395723
104	0x3aaed866	0.0013339638
105	0xbae9379c	-0.0017793062
106	0xb96e7bba	-0.0002274354
107	0x3ab77a3d	0.0013998222
108	0x00000000	0.0
109	0xbaf26a1d	-0.0018494759
110	0xbb3ba6a8	-0.002863327
111	0x3a64376a	0.0008705767
112	0x00000000	0.0
113	0xbaf573b4	-0.0018726499
114	0xb3c17c33	-9.0098546e-08
115	0xbb73ff62	-0.0037231077
116	0x3b28a042	0.0025730287
117	0x00000000	0.0
118	0x00000000	0.0
119	0x3ac57dea	0.0015067433
120	0xba595e07	-0.0008291904
121	0xba8773bd	-0.0010334175
122	0xbaeaa5ab	-0.0017902156
123	0x00000000	0.0
124	0x00000000	0.0
125	0x9eab0dac	-1.8110984e-20
126	0x00000000	0.0
127	0x00000000	0.0

action_model._discrete_distribution.branches.0.weight f4 [3, 128]
0	0xbb74a39e	-0.0037328969
1	0x3bbceb9c	0.0057653915
2	0x3b88dc5f	0.004176661
3	0x3b6d278d	0.0036186904
4	0xbaa96347	-0.0012923264
5	0xbb4e6f22	-0.0031499346
6	0xbb9f8110	-0.0048676804
7	0x3b384723	0.0028118573
8	0x3b830bef	0.0039992253
9	0xbbf13152	-0.007360616
10	0x3b802481	0.0039106016
11	0xbc86c293	-0.016450202
12	0xbb6ba907	-0.0035958902
13	0xbca3371e	-0.019923743
14	0x3c64f427	0.013974226
15	0x3b8406ec	0.0040291455
16	0xbc06675e	-0.008203356
17	0xbb9e0f65	-0.0048236125
18	0xbc42f8cd	-0.011900139
19	0xbcce8391	-0.02520922
20	0xbb9bad7b	-0.004750905
21	0x3bb1afbe	0.0054225614
22	0xbaa0cf64	-0.0012268838
23	0x3c3ba5c7	0.011453099
24	0x3c3edf83	0.011649969
25	0xbcaf6027	-0.021408154
26	0x3bf25a1a	0.007395995
27	0x3b3c2c2e	0.0028712857
28	0xbb632be0	-0.0034663603
29	0x3bced742	0.006312282
30	0x3cf7f13f	0.030266402
31	0xbab55295	-0.0013833815
32	0x3c70afd8	0.014690362
33	0xbc27327e	-0.010204909
34	0xbb565eff	-0.003271043
35	0x3c4912b4	0.012272526
36	0xbbd0877a	-0.0063638063
37	0x3bf9ca83	0.007623018
38	0xbbe16176	-0.0068780733
39	0x3c094f82	0.008380773
40	0xba3c11cf	-0.00071742845
41	0xbae20a24	-0.0017245454
42	0xbbce27f0	-0.006291382
43	0xbc54c96f	-0.012987479
44	0xbb990140	-0.0046693385
45	0xbc36d5fe	-0.011159418
46	0x3b4509ea	0.0030065724
47	0xbb969443	-0.004595311
48	0xbc6f8329	-0.014618673
49	0xba8e447f	-0.0010854154
50	0xbb66fa9d	-0.0035244592
51	0x3b3c1dd1	0.0028704295
52	0x3a6ad410	0.00089579914
53	0xbc31b3d0	-0.010846093
54	0x3c9285c7	0.017886056
55	0x3c1db083	0.009624603
56	0x3c4877c0	0.012235582
57	0xbbbb245b	-0.005711121
58	0xbc616e85	-0.01375926
59	0xbb9471ed	-0.0045301826
60	0x390502d7	0.00012684926
61	0xbc25440e	-0.010087026
62	0x3c05288b	0.008127342
63	0x3c28148a	0.010258803
64	0x3b1b5edc	0.0023707664
65	0xbc1a8031	-0.009429977
66	0xbb714a04	-0.0036817798
67	0x3b035a7f	0.0020042954
68	0x3b8f37b2	0.004370653
69	0xbc4da115	-0.012550612
70	0xbc16b741	-0.009198965
71	0xbabc2fb0	-0.0014357474
72	0xbb882c7c	-0.0041556936
73	0xbb9a6137	-0.004711296
74	0xba80d16b	-0.0009828036
75	0xbbd838f5	-0.0065985867
76	0xbb14af8f	-0.002268765
77	0x3be180f0	0.0068818256
78	0xbb1b9a13	-0.0023742958
79	0x3b772022	0.0037708362
80	0x3bc9764e	0.006148136
81	0xbc128a3a	-0.008944089
82	0x3b5f1e6b	0.003404523
83	0x3c49f039	0.01232534
84	0xbac05aa7	-0.0014675454
85	0x3bd8224b	0.006595885
86	0x3b1193cf	0.0022213345
87	0x3c598638	0.013276629
88	0x3c7be39a	0.015374089
89	0xb95cad56	-0.00021045408
90	0x3bb7a759	0.005604666
91	0xbbe1a0ed	-0.006885639
92	0x3bd37b98	0.0064539425
93	0x394f4ad0	0.00019768928
94	0xbb20f07b	-0.00245574
95	0xbc4133e7	-0.01179216
96	0x3aeb88a0	0.0017969795
97	0xbbadc176	-0.0053026034
98	0xbc0fdc7a	-0.008780593
99	0x3bddc642	0.006768019
100	0xbbdb3888	-0.0066900887
101	0xbc3b033f	-0.011414348
102	0xbc798ff7	-0.015232078
103	0x3c18329e	0.009289412
104	0x3a71c482	0.00092227024
105	0x3c21e188	0.009880431
106	0x3abb4ee8	0.0014290484
107	0xbc7b43b1	-0.015335963
108	0x3c89699f	0.016773997
109	0xbc0da827	-0.008646048
110	0xbbb471d6	-0.0055067344
111	0xb8c073bd	-9.1768314e-05
112	0x3ac6b8a6	0.0015161231
113	0x3bc318f1	0.005953901
114	0xbbf4fca8	-0.007476408
115	0x3b81a7c5	0.0039567673
116	0xbb9d61b0	-0.004802905
117	0xbc6045f2	-0.013688551
118	0x3acf7835	0.0015828671
119	0x3be4331c	0.0069641005
120	0x3bee16bc	0.0072658937
121	0xbb8c1fc4	-0.0042762477
122	0x3c7f4dd9	0.015582525
123	0x3c408759	0.011751019
124	0xbae028f0	-0.0017102044
125	0x3b0601c7	0.0020447837
126	0x3c282703	0.010263207
127	0xba355326	-0.0006916992
128	0xbbfc04f8	-0.007691022
129	0x3acdaeaa	0.0015692313
130	0x3c6fcae3	0.014635774
131	0x3b18e556	0.0023330054
132	0x3b5f47b0	0.0034069829
133	0x3cabcfb7	0.02097307
134	0x3c2b8e65	0.010470961
135	0x3c149afe	0.009070156
136	0xbb42efcb	-0.0029744979
137	0xba6e4e0d	-0.000909061
138	0xbc3f6462	-0.011681648
139	0x3ba981eb	0.005172958
140	0xba8acadb	-0.001058902
141	0xbaabd974	-0.0013111071
142	0xbcfc4f95	-0.030799666
143	0xbbeb3c63	-0.0071788295
144	0x3c255d52	0.01009305
145	0xbb8cb7ae	-0.0042943573
146	0xbbebae2b	-0.0071923933
147	0xbb52266d	-0.003206636
148	0x3bb5c8ee	0.0055476343
149	0x3bae9d9b	0.0053288466
150	0x3c283e2b	0.010268728
151	0x3c956d37	0.018240554
152	0xbc12b0c2	-0.008953275
153	0xba766b65	-0.00094001583
154	0xbc3f325b	-0.0116697205
155	0xbbc29e7e	-0.005939304
156	0x3c170e5b	0.009219731
157	0x3c13564a	0.008992741
158	0x3b9e9c54	0.004840413
159	0xbbfa5d3a	-0.007640508
160	0x3c27fd8e	0.010253323
161	0xbc17c045	-0.009262149
162	0x3c6efc68	0.0145865455
163	0xbc70dc28	-0.014700927
164	0x3ba4c007	0.0050277743
165	0xbc654272	-0.013992893
166	0xbb20d1c1	-0.0024539086
167	0xbaa91060	-0.0012898557
168	0xbb9a47d2	-0.0047082687
169	0xbc74e2b3	-0.014946627
170	0xbb7b406b	-0.0038337957
171	0x3ae36560	0.0017348938
172	0x3bd57eff	0.0065153833
173	0x3c78a9af	0.0151771745
174	0xbc075c48	-0.008261748
175	0x3be4187b	0.006960926
176	0xbbb2b228	-0.005453367
177	0xbca0ae9f	-0.019614516
178	0x3bea7363	0.0071548685
179	0x3c567457	0.013089261
180	0xba2f5bc5	-0.0006689395
181	0xbbd4547d	-0.0064797984
182	0xbc026877	-0.007959477
183	0x3b4dd087	0.003140481
184	0xbc743ca0	-0.014907032
185	0xbc234485	-0.009965067
186	0x3baaf9ff	0.00521779
187	0xbbf4ccfa	-0.007470724
188	0xbb327cb9	-0.0027234985
189	0x3c442c89	0.011973509
190	0x3bc40827	0.005982417
191	0xbc5671e8	-0.013088681
192	0x3c84174b	0.016124388
193	0x3c5af6aa	0.013364473
194	0x3b606c92	0.00342444
195	0xbc903f24	-0.017608233
196	0x36c35eca	5.8224878e-06
197	0x3b69fd6b	0.0035704027
198	0xbc0e4d9c	-0.008685496
199	0xbbef25b3	-0.0072981953
200	0x3c062a19	0.008188748
201	0x3c07a093	0.00827803
202	0xbc58b3f2	-0.013226496
203	0xbbe8984f	-0.0070982347
204	0xbc50d317	-0.01274564
205	0xbbf9f2df	-0.0076278294
206	0x3bc04eb1	0.0058687557
207	0xbb8e08a3	-0.0043345257
208	0x3a7ad32b	0.00095682096
209	0xbc0ba1f3	-0.008522498
210	0x3c010622	0.007874997
211	0xbb95076b	-0.0045480034
212	0xba117ebc	-0.0005550196
213	0x3c9d0f7d	0.019172424
214	0xbc8de821	-0.017322602
215	0x3c11ce37	0.008899263
216	0xbb8307ec	-0.003998747
217	0xbb8cc6e8	-0.0042961724
218	0xbbc0e3a0	-0.00588651
219	0xbc2a802b	-0.010406534
220	0xbb8d280a	-0.0043077515
221	0x3b8cca21	0.0042965566
222	0xbbc78908	-0.0060893334
223	0xbc7295c5	-0.014806216
224	0x3b02afa5	0.0019941118
225	0xbc316f3c	-0.010829743
226	0xbb89de04	-0.0042073745
227	0x3b82b633	0.003989005
228	0x3bfcf95d	0.007720156
229	0x3b47f5e4	0.0030511552
230	0xb85d0d5d	-5.270295e-05
231	0xba501783	-0.0007938074
232	0xbc3a64ec	-0.011376601
233	0x3b240adc	0.0025030887
234	0xbae01d05	-0.0017098492
235	0x3b1a85f7	0.0023578384
236	0x3c08597d	0.008322117
237	0xbbced3c0	-0.0063118637
238	0xbc140783	-0.009034994
239	0xbca48f9a	-0.020088006
240	0x3b60c13d	0.0034294866
241	0x3c0f2e97	0.008739135
242	0xbb9f4c55	-0.0048613944
243	0xbbc37330	-0.005964659
244	0xba1d92ab	-0.000601093
245	0xbc26315f	-0.010143607
246	0xbb23f72c	-0.0025019152
247	0xbbca6e01	-0.0061776643
248	0x3c9185cb	0.017763993
249	0x3c405908	0.011739977
250	0xbc112cdf	-0.008860796
251	0x3c659e33	0.014014768
252	0xbc44f1bb	-0.012020524
253	0xbb4aa6e7	-0.0030922235
254	0xbbf01eaa	-0.007327874
255	0xbaa340b0	-0.0012455191

action_model._discrete_distribution.branches.0.bias f4 [3]
0	0xbacd532e	-0.0015665048
1	0x19158b88	7.7312976e-24
2	0x3acd51bd	0.0015664619

action_model._discrete_distribution.branches.1.weight f4 [3, 128]
0	0xba77197c	-0.00094261
1	0xbc941f87	-0.01808144
2	0xbaada3cd	-0.0013247669
3	0x3b0dae8a	0.0021618926
4	0xbb3c4a00	-0.002873063
5	0x3c41160f	0.011785044
6	0xbc07eacc	-0.008295726
7	0x3c3b8904	0.011446241
8	0xbc29e2cb	-0.010369013
9	0xbc3ed51b	-0.011647488
10	0xbc296d61	-0.010341019
11	0x3c7ee446	0.015557354
12	0xbb0e214d	-0.002168733
13	0xba055d7b	-0.0005087477
14	0x3aea741d	0.0017887388
15	0x397d2786	0.00024142684
16	0xbbb36cdb	-0.005475623
17	0xbba22f09	-0.0049494547
18	0xbc3fda73	-0.011709797
19	0xbc376527	-0.01119355
20	0xbc449b70	-0.01199995
21	0xbb958ced	-0.004563919
22	0xbb81b0d3	-0.0039578467
23	0xbcba48fe	-0.022739884
24	0x3bebfa8d	0.007201499
25	0x3a968b13	0.0011485539
26	0x3c0c03ae	0.008545799
27	0xbbd6e2d5	-0.006557802
28	0x3c30983f	0.010778486
29	0x3c7038dc	0.014661994
30	0x3bdecc22	0.006799237
31	0xbc0b1e26	-0.008491075
32	0x3b471c94	0.0030382024
33	0xbbb6d5eb	-0.0055797
34	0x3c2685dd	0.010163751
35	0x3bba62eb	0.0056880615
36	0xbac293d5	-0.0014845083
37	0xbb2cd326	-0.0026370971
38	0x3ab13cd8	0.0013522161
39	0x3c54c956	0.012987455
40	0x3c2ad113	0.010425824
41	0x3bbe3320	0.0058044344
42	0xbaf0d188	-0.0018372992
43	0xbb7f0bb1	-0.003891688
44	0xbbb8ce7a	-0.0056398483
45	0x3af400a8	0.0018615918
46	0x3b8b2de5	0.0042474144
47	0x3cb78cc6	0.022405993
48	0xbbdda0c2	-0.0067635486
49	0x3b58e854	0.0033097463
50	0x3b8de34c	0.0043300744
51	0xbb42307e	-0.0029630954
52	0x3b311281	0.0027019086
53	0x3ba6c58d	0.005089468
54	0xbb85856f	-0.0040747444
55	0x3c750995	0.014955898
56	0x3c967348	0.018365517
57	0x3c4ff998	0.012693785
58	0x3b40efcc	0.0029439805
59	0x3c09269b	0.008371021
60	0x3ca21530	0.019785494
61	0xbbea15e8	-0.0071437247
62	0xb91fc56a	-0.00015236964
63	0xbb411154	-0.0029459791
64	0xbc374959	-0.011186921
65	0x3ad93617	0.0016571906
66	0x3be7c1c7	0.0070726606
67	0x3bf814c0	0.007570833
68	0xbba98bca	-0.005174135
69	0xbc542de4	-0.012950394
70	0x3bbc4e96	0.005746673
71	0xbab5b0a5	-0.0013861848
72	0x3c51fd1f	0.012816696
73	0x3be25485	0.006907048
74	0xbb166f1d	-0.0022954412
75	0xbba40f83	-0.005006732
76	0xbb655191	-0.0034991244
77	0xbca94488	-0.020662561
78	0x3b8110f7	0.00393879
79	0x3a7f7343	0.00097446534
80	0x3cce5248	0.02518572
81	0xba3c6edd	-0.0007188151
82	0x3ba4ea3b	0.0050328053
83	0x3b1ed755	0.0024237235
84	0xba919bdb	-0.0011109071
85	0xbc0fdde9	-0.008780935
86	0xbc2f2d13	-0.010691899
87	0x3b9db1d6	0.0048124595
88	0x3bcf2c35	0.0063224086
89	0xbbd79733	-0.0065793036
90	0xbba6d8b1	-0.0050917496
91	0x3a5a88ea	0.0008336442
92	0x3cac8c44	0.021062978
93	0xba3e4a47	-0.0007258993
94	0xbcabcb52	-0.020970974
95	0xbb5cd7eb	-0.0033698033
96	0x3b1fe63f	0.0024398712
97	0x3c9169ef	0.017750708
98	0xbc01adb9	-0.007914954
99	0x3c2b05e2	0.010438414
100	0xbc02b5a2	-0.007977875
101	0xbbde550d	-0.006785041
102	0x3ab9cd08	0.0014175484
103	0x3b2ed786	0.0026678755
104	0x3c3494e0	0.011021823
105	0xbc2f80b7	-0.01071184
106	0x3c1d7304	0.009609941
107	0xbacad0a1	-0.0015473553
108	0x3c47ae6b	0.012187581
109	0x3aa183a3	0.0012322556
110	0xbc0e075d	-0.008668748
111	0x3b1f039f	0.0024263633
112	0xbc6b80e0	-0.014373988
113	0x3aa68b74	0.0012706355
114	0x3c6d8077	0.01449596
115	0x3c7c0239	0.015381389
116	0x3ae2a1bb	0.0017290631
117	0xbc2d9507	-0.010594613
118	0x3ba210cf	0.0049458514
119	0xbc3ea64d	-0.011636329
120	0x3b531055	0.003220578
121	0xba5513fb	-0.00081282825
122	0xbb8b281b	-0.0042467243
123	0xbc452e9e	-0.01203504
124	0xbc28d38f	-0.010304346
125	0x3b4db7a5	0.0031389978
126	0xbb22b36a	-0.0024826177
127	0xb999e158	-0.00029350328
128	0xbba4d0e2	-0.0050297836
129	0xb9471d27	-0.00018988979
130	0x3bb50139	0.0055238274
131	0xba9759b7	-0.0011547123
132	0x3ace6928	0.0015747892
133	0xbc68c930	-0.014208123
134	0xbc5138c4	-0.012769882
135	0xbc127363	-0.008938643
136	0xbc190cc2	-0.009341421
137	0xbbc8614a	-0.0061151134
138	0x3bf70278	0.007538136
139	0x3cacea58	0.021107838
140	0xbb0e150e	-0.002168003
141	0xbab86c7c	-0.0014070417
142	0x3c036226	0.008019006
143	0x3811af5f	3.473402e-05
144	0xbbff5dfc	-0.007793186
145	0x3b916e3b	0.0044381893
146	0x3b341d19	0.0027483164
147	0x3bbbe0c4	0.0057335813
148	0x3c1b0af5	0.009463062
149	0xbb0276ab	-0.0019907157
150	0xbb4a2fa9	-0.0030851162
151	0x3c77d110	0.015125528
152	0x3bc3b168	0.005972076
153	0xba94efb5	-0.0011362942
154	0xbc6f28ad	-0.0145971
155	0x3aef5c85	0.0018261826
156	0xbb8da0e3	-0.0043221577
157	0x3bb6730a	0.005567913
158	0x3bacb332	0.005270385
159	0xbac8b3c7	-0.0015312367
160	0x3badc686	0.005303207
161	0x3c10e216	0.008842966
162	0x3b3c9101	0.0028772953
163	0x3c76ee88	0.015071519
164	0x3ad93715	0.0016572202
165	0xbb886607	-0.004162553
166	0x3c8ac9af	0.016941873
167	0x3c6a374a	0.0142954085
168	0xbb34e839	-0.0027604236
169	0xba96b1a4	-0.0011497033
170	0x3cc38cbb	0.023870816
171	0x39b84a00	0.0003515035
172	0x39faf6a3	0.00047867474
173	0x3b428c15	0.0029685546
174	0xbcbcc9e4	-0.023045488
175	0xbc7818a3	-0.015142593
176	0x3c7c1c8f	0.015387668
177	0x3ba4fcf2	0.0050350362
178	0xbb5da8ca	-0.003382253
179	0xba7619ba	-0.0009387989
180	0xbc1759fe	-0.009237764
181	0x3c488fd9	0.012241327
182	0xbc74e9ab	-0.014948289
183	0xbbc29383	-0.005937995
184	0xbc110b20	-0.00885275
185	0xbc15ccad	-0.009143037
186	0x3bfcd60b	0.0077159456
187	0x3c19fa85	0.009398107
188	0x3b24f42b	0.002516995
189	0xba22add9	-0.0006205715
190	0x3aa034d4	0.0012222775
191	0x3c0da254	0.008644659
192	0x3c2120ba	0.009834463
193	0x3bb3311c	0.005468501
194	0x3c613801	0.0137462625
195	0x3c217d27	0.009856499
196	0x3b81dea1	0.003963307
197	0xbb8bcaa3	-0.0042660995
198	0xbc8d61bf	-0.017258523
199	0xbbc1ba04	-0.0059120674
200	0x3c73546b	0.01485167
201	0x3ba51917	0.0050383913
202	0x37afa4bf	2.0938342e-05
203	0x3bfc8ca7	0.0077071968
204	0x39ba7024	0.00035560236
205	0xbbaa8db1	-0.005204879
206	0x3b75a460	0.0037482008
207	0x3afe456d	0.0019399353
208	0xbba6016b	-0.005066087
209	0x3b9c80a9	0.0047760797
210	0xbaa1ab72	-0.001233442
211	0xbc7a322e	-0.015270753
212	0x3c35bf6c	0.011093002
213	0x3c0dd9db	0.008657898
214	0xb98ae085	-0.0002648869
215	0x38b7ee21	8.770475e-05
216	0xbb24c0ec	-0.0025139404
217	0xbbcba36b	-0.0062145493
218	0xbbb53c3b	-0.0055308617
219	0x3b5775f5	0.0032876704
220	0xbbab5e53	-0.00522975
221	0xbb491ad5	-0.003068616
222	0xbb98898c	-0.0046550687
223	0xbc83747e	-0.016046759
224	0xb8a5de8e	-7.909267e-05
225	0x3c7655f1	0.015035138
226	0xbb14840b	-0.0022661712
227	0xbc3955fb	-0.011312003
228	0x3a2a556c	0.0006497714
229	0x3bbffd90	0.0058590844
230	0xba5e19d0	-0.00084724743
231	0x3ba913ba	0.0051598223
232	0xbc92a318	-0.017900035
233	0xbc194877	-0.009355656
234	0x3bbfa2cd	0.005848265
235	0x3b0bc274	0.002132562
236	0xbbf28efd	-0.0074022994
237	0xbb9469e0	-0.004529223
238	0xbb122203	-0.0022298105
239	0x3c7c6705	0.015405421
240	0x3b7e3728	0.00387902
241	0xb99e6933	-0.00030214488
242	0xbc0637d1	-0.008192019
243	0x3c4dbe2f	0.01255755
244	0xbb270b67	-0.0025488974
245	0x3bce0047	0.006286654
246	0xbba61160	-0.005067989
247	0xbb3a3965	-0.0028415557
248	0x3b430b33	0.0029761314
249	0x3c1b6a3e	0.009485779
250	0xbc4efe38	-0.012633853
251	0xbc136f8c	-0.008998763
252	0xbad4ed43	-0.0016245026
253	0x3c883504	0.016626842
254	0xbbb26eed	-0.0054453523
255	0x3c01040d	0.007874501

action_model._discrete_distribution.branches.1.bias f4 [3]
0	0x32a58837	1.9270471e-08
1	0xb4beabf9	-3.5515384e-07
2	0x34406455	1.7917894e-07
