Assets/Models/MoveToGoal.onnx (onnx, 111466 bytes, 9 tensors)

network_body._body_endoder.seq_layers.0.weight f4 [128, 72]
-0.16266978 -0.08223005 -0.05451599 0.08126808 -0.013053331 -0.25613484 -0.08881584 -0.06674113
0.070793174 0.10132027 -0.17507422 0.22155426 0.02836721 0.11051982 -0.05769138 -0.02294183
-0.08046956 -0.08319601 0.020334003 0.13029559 0.19141947 0.015930897 0.058002155 -0.04232469
0.04527703 -0.08229856 0.071068935 -0.15419601 -0.056497935 -0.25960663 -0.14244328 0.14607474
-0.092608556 -0.020455688 0.08579531 -0.088685244 0.14561032 0.172014 0.16055259 0.012733009
-0.09742671 -0.115166694 0.12829307 0.13068365 -0.13055871 -0.031856008 0.045943998 0.25249174
-0.116051905 0.18049316 -0.080571584 -0.07970437 0.017501658 0.068485074 0.22333375 0.020901626
0.040991243 -0.13762854 0.18702185 -0.06714496 0.06338999 -0.09057852 -0.000980261 -0.0013968654
-0.07866841 -0.050989244 0.030048769 0.2055133 0.058756605 -0.051299628 0.1098808 0.14067224
0.048018906 -0.07313188 -0.03748845 0.0065600285 0.12217889 -0.0032528562 0.0734361 0.10576099
-0.033895604 -0.03394469 0.014157828 0.13127029 0.0077685104 0.040937565 -0.019148149 -0.053951386
0.0023664897 0.08020556 -0.019736832 0.017538866 0.042531285 0.019534241 -0.12769088 0.13801986
0.08212472 0.06278456 0.02634824 0.08509108 0.07667986 -0.019228736 0.1078342 0.14180252
-0.08517733 -0.06597216 -0.031185571 -0.09234843 -0.18991153 -0.23835957 -0.1726922 -0.045721788
-0.10341943 -0.04095137 -0.025911875 0.107254714 0.06040792 -0.051629584 -0.091349825 0.06474101
-0.11158478 0.15685153 0.13496073 0.055013757 -0.14254105 -0.076423354 -0.22523467 0.021653796
-0.26619083 -0.13906975 0.11398635 -0.091377854 0.0020552736 0.05859607 -0.08726982 -0.082140625
0.0037909697 0.13297993 -0.15882026 -0.070334665 -0.028808748 0.09618263 0.14481996 0.14185801
0.102944404 0.0354849 0.12541603 -0.10825476 0.26112947 0.19412898 0.033986367 -0.16947359
-0.12419013 0.17447312 -0.16042328 0.42484513 0.036721613 0.0021354083 0.228031 0.11586189
-0.03294627 0.21128522 -0.028986504 -0.09702993 -0.060335524 -0.12030458 -0.15306398 0.076027855
-0.0119917905 0.08882863 -0.008052341 0.042315435 0.08949331 -0.1100023 0.042819567 -0.037549
-0.05555551 -0.20837113 0.008971608 -0.22370405 0.10537792 -0.28589922 -0.061004613 -0.020195711
0.19644645 -0.14248334 -0.077125445 -0.14969355 -0.038067427 -0.051151134 -0.010857445 -0.039443742
-0.13898098 0.19604123 0.00019816437 0.049749136 -0.027380383 0.1351835 -0.054235004 0.19328822
0.014696048 -0.040698715 0.10153633 -0.049243115 -0.19129924 0.039682735 -0.080145605 0.0020941272
0.12698413 0.052432604 0.056907885 0.07164039 0.071151756 -0.08602455 -0.03945325 -0.029463286
0.09112779 -0.16964768 -0.0145241935 -0.0054828636 -0.14804645 -0.16285498 0.14482842 -0.12898
0.14445929 0.09755984 -0.20772342 0.04888947 0.012066292 0.05849345 0.124920614 -0.054347143
0.2831449 0.20407072 0.023223422 0.105639234 0.08369315 -0.049511485 -0.026768936 -0.30158657
-0.08052491 0.09080949 -0.13626449 -0.04845284 0.055107202 0.19388726 -0.14232345 -0.13103004
0.27440006 0.056396883 -0.09581695 0.08947043 0.24916328 -0.047376517 0.024227435 -0.0067697386
00000000: e892 26be 3a68 a8bd 294c 5fbd e16f a63d
00000010: a3dd 55bc 1b24 83be 14e5 b5bd 93af 88bd
00000020: 03fc 903d 0081 cf3d a846 33be 1fdf 623e
00000030: 5a62 e83c 3758 e23d cc4d 6cbd 81f0 bbbc
00000040: 3acd a4bd ab62 aabd 7f93 a63c 356c 053e
00000050: 7703 443e 8381 823c ab93 6d3d a75c 2dbd
00000060: 6874 393d 268c a8bd 978c 913d 8fe5 1dbe
00000070: 616a 67bd 29eb 84be a7dc 11be 9e94 153e
00000080: 8ea9 bdbd b092 a7bc 74b5 af3d 9ca0 b5bd
00000090: df1a 153e 7024 303e e667 243e 1c9e 503c
000000a0: a887 c7bd 84dc ebbd 425f 033e efd1 053e
000000b0: 2fb1 05be 727b 02bd c62f 3c3d 9946 813e
000000c0: 9fac edbd 33d3 383e b702 a5bd 0b3c a3bd
000000d0: a35f 8f3c e741 8c3d 9ab1 643e e339 ab3c
000000e0: 6fe6 273d 7fee 0cbe a882 3f3e 4c83 89bd
000000f0: 9cd2 813d 3b81 b9bd 1a7c 80ba 0617 b7ba
00000100: e71c a1bd 19da 50bd d628 f63c 1472 523e
00000110: c4aa 703d 8f1f 52bd 2f09 e13d 620c 103e
00000120: 79af 443d 2bc6 95bd 7d8d 19bd 82f5 d63b
00000130: ed38 fa3d df2d 55bb aa65 963d 3899 d83d
00000140: 1ed6 0abd 9609 0bbd 3cf6 673c b86b 063e
00000150: fd8e fe3b 26ae 273d 94dc 9cbc 21fc 5cbd
00000160: 1c17 1b3b d042 a43d 23af a1bc abad 8f3c
00000170: 4935 2e3d 4606 a03c 66c1 02be 1455 0d3e
00000180: 0131 a83d 3195 803d 44d8 d73c 3b44 ae3d
00000190: 550a 9d3d 9585 9dbc 2dd8 dc3d ae34 113e
000001a0: 7471 aebd 691c 87bd e278 ffbc 2c21 bdbd
000001b0: 2b78 42be 8814 74be 39d6 30be c546 3bbd
000001c0: 91cd d3bd a0bc 27bd 2445 d4bc 5ca8 db3d
000001d0: 4c6e 773d 8b79 53bd 9e15 bbbd ef96 843d
000001e0: 9086 e4bd b09d 203e 2533 0a3e 1b56 613d
000001f0: 48f6 11be d983 9cbd eba3 66be 4d63 b13c
00000200: 2a4a 88be 4d68 0ebe ad71 e93d 5024 bbbd
00000210: c5b1 063b 6f02 703d 85ba b2bd 5839 a8bd
00000220: eb71 783b e42b 083e c7a1 22be 9f0b 90bd
00000230: 5300 ecbc 66fb c43d af4b 143e 3a43 113e
00000240: 84d4 d23d 9d58 113d 0f6d 003e acb4 ddbd
00000250: c3b2 853e bfc9 463e 4a35 0b3d 7c8a 2dbe
00000260: 6557 febd 15a9 323e 0046 24be 4d85 d93e
00000270: 6769 163d 35f2 0b3b f580 693e 0049 ed3d
00000280: abf2 06bd 275b 583e 1b75 edbc a1b7 c6bd
00000290: 6222 77bd 3f62 f6bd cebc 1cbe 7eb4 9b3d
000002a0: 3779 44bc c9eb b53d f7ed 03bc f352 2d3d
000002b0: 4548 b73d e348 e1bd 9263 2f3d fbcc 19bd
000002c0: 2d8e 63bd 3e5f 55be a7fd 123c ad12 65be
000002d0: 61d0 d73d 6261 92be f9df 79bd 7a71 a5bc
000002e0: 4229 493e 27e7 11be f2f3 9dbd 4449 19be
000002f0: 97ec 1bbd da83 51bd 6de3 31bc c38f 21bd
00000300: 0851 0ebe 08bf 483e 58ca 4f39 c0c5 4b3d
00000310: d34c e0bc 8b6d 0a3e 8625 5ebd 59ed 453e
00000320: b1c7 703c b2b3 26bd 48f2 cf3d 26b3 49bd
00000330: f3e3 43be 5d8a 223d 6123 a4bd a03d 093b
00000340: 2108 023e 92c3 563d 3e18 693d 32b8 923d
00000350: 03b8 913d a42d b0bd bb99 21bd fd5c f1bc
00000360: 35a1 ba3d 1fb8 2dbe e2f6 6dbc 98a9 b3bb
00000370: 7d99 17be 75c3 26be e74d 143e 5513 04be
00000380: 23ed 133e 74cd c73d 73b5 54be 5340 483d
00000390: b2b1 453c d496 6f3d 61d6 ff3d 1c9b 5ebd
000003a0: 5ef8 903e eaf7 503e 0c3f be3c 6259 d83d
000003b0: 5067 ab3d 8ecc 4abd 874a dbbc 8e69 9abe
000003c0: 3eea a4bd 53fa b93d eb88 0bbe 7c76 46bd
000003d0: 17b8 613d 628a 463e 3dbd 11be bd2c 06be
000003e0: 2a7e 8c3e 6b00 673d ad3b c4bd 463c b73d
000003f0: a924 7f3e e10d 42bd 9d78 c63c afd4 ddbb

network_body._body_endoder.seq_layers.0.bias f4 [128]
0.009771563 -0.001024269 -0.007186799 0.023464376 0.0051904656 0.0036782788 -0.008679088 -0.0007791944
-0.008181481 0.0031047494 0.00029963808 -0.022423256 -0.004882019 -0.008669896 0.013030497 -0.0076059406
-0.0034430334 -0.0133205755 0.0033058363 -0.0035455932 -0.0064641447 0.005173559 0.013607548 0.0039057364
0.0077947453 0.017612685 0.014876341 0.009976615 0.0062779454 -0.011837228 -0.0038945666 -0.010405926
0.011466691 -0.0073240767 0.0030088392 -0.0038517164 0.0038065081 0.0057627284 0.0043625943 0.0139964875
0.0057359734 0.008444882 -0.00899685 0.0018655685 0.009648455 -0.0024712537 -0.008290407 -0.0012475596
-0.019856682 -0.0031713732 -0.0011357921 0.00301857 0.0014090928 0.0017031955 0.0053229835 0.0048231897
0.005750478 0.0091633685 -0.004929446 0.010866885 -0.0071839737 -0.013820299 -0.016473925 -0.0023690746
-0.0064859865 0.0044918093 -0.007827457 0.010383676 0.0072050756 0.00091902784 0.005760131 0.03015824
0.009012427 0.0029842644 -0.0017449203 0.007072692 -0.0010025589 0.014585364 0.0051076827 0.0056935665
-0.0030813096 0.004236235 0.0018312987 -0.0011237867 -0.00609114 0.0015830875 0.010449751 -0.0021800746
0.002103452 0.00034753067 -0.0069655105 -0.013377382 -0.0060800808 0.015876371 0.01584308 0.007937231
-0.005180367 0.011102418 0.003386593 0.004904033 0.0051679243 -0.008402666 -0.020737914 -0.00060159294
-0.004893668 0.0010690053 0.0069405544 -0.0032576653 -0.008453984 -0.0033281392 0.005411216 0.015062463
-0.004301372 0.017443899 0.0011107061 -0.011622724 0.002975145 0.009405828 -0.011073107 -0.004589703
-0.009448129 0.015377226 -0.013729785 -0.0141403135 0.010753416 0.004263315 -0.008710372 -0.008719767
00000000: e818 203c c440 86ba 3d7f ebbb 5d38 c03c
00000010: c814 aa3b 470f 713b bc32 0ebc da42 4cba
00000020: 9e0b 06bc 0d79 4b3b be18 9d39 fab0 b7bc
00000030: 58f9 9fbb 2e0c 0ebc de7d 553c 413b f9bb
00000040: 84a4 61bb 8b3e 5abc bba6 583b 2f5d 68bb
00000050: 2dd1 d3bb f586 a93b 31f2 5e3c 62f7 7f3b
00000060: 106b ff3b 7a48 903c e6bb 733c f574 233c
00000070: 39b7 cd3b eff0 41bc fc3b 7fbb 9e7d 2abc
00000080: cade 3b3c cffe efbb f22f 453b 146d 7cbb
00000090: 9c76 793b 45d5 bc3b 18f4 8e3b 8651 653c
000000a0: d5f4 bb3b 675c 0a3c 8667 13bc 1786 f43a
000000b0: 8e14 1e3c c2f4 21bb 7dd4 07bc 2785 a3ba
000000c0: 7baa a2bc d0d6 4fbb dcde 94ba 33d3 453b
000000d0: 4fb1 b83a c23d df3a 6c6c ae3b d90b 9e3b
000000e0: 816e bc3b f421 163c 3187 a1bb 050b 323c
000000f0: 8a67 ebbb 896e 62bc 53f4 86bc 7a42 1bbb
00000100: 6688 d4bb 0730 933b bc3e 00bc 4b20 2a3c
00000110: 8e18 ec3b eaea 703a 7bbf bc3b 6a0e f73c
00000120: dca8 133c a693 433b cfb5 e4ba 0ac2 e73b
00000130: 4b68 83ba 73f7 6e3c 595e a73b 1991 ba3b
00000140: ccef 49bb 1dd0 8a3b 3008 f03a 064c 93ba
00000150: 3098 c7bb 9a7f cf3a 6f35 2b3c 95df 0ebb
00000160: 12da 093b c734 b639 f03e e4bb cf2c 5bbc
00000170: 6a3b c7bb 2a0f 823c 59c9 813c 290b 023c
00000180: 11c0 a9bb ebe6 353c 9af1 5d3b 03b2 a03b
00000190: b157 a93b 56ab 09bc 8fe2 a9bc 38b4 1dba
000001a0: 105b a0bb de1d 8c3a 976d e33b 8e7e 55bb
000001b0: 9482 0abc e91c 5abb 9250 b13b 8cc8 763c
000001c0: 86f2 8cbb 82e6 8e3c 1d95 913a 3d6d 3ebc
000001d0: a6fa 423b e71a 1a3c fa6b 35bc 3865 96bb
000001e0: 53cc 1abc c3f0 7b3c e4f2 60bc c6ac 67bc
000001f0: 192f 303c 47b3 8b3b f3b5 0ebc 5bdd 0ebc

network_body._body_endoder.seq_layers.2.weight f4 [128, 128]
0.1485416 -0.0075982497 0.08610325 -0.09879884 0.09297923 0.04871747 0.09895448 -0.035558186
-0.15198733 0.071512654 0.00064444105 -0.0056131585 0.15834197 -0.1271056 -0.10269589 0.1445452
0.030551279 0.06524036 -0.093759544 -0.09601303 -0.01501275 -0.09184433 0.0848477 -0.04285824
0.0016548311 -0.032845847 0.14493321 -0.18153223 0.007035081 0.05206999 0.030474326 -0.18766502
-0.028975764 0.047644608 0.020764597 0.075262494 0.053603575 0.062309776 -0.021914698 0.090274766
0.009229803 0.053898226 -0.12617072 -0.009384819 -0.009621583 -0.107542165 0.00793011 0.33418763
0.04101285 0.028914124 0.007883138 0.04438447 -0.031799216 -0.011694687 -0.069844544 -0.023893297
0.059666045 0.09867223 0.06162416 0.027380772 0.07155028 0.0022713677 0.049765065 -0.09673191
0.057281516 -0.04335524 0.0054157395 -0.014976804 -6.0906415e-05 0.09028635 -0.083022 0.016142383
0.061283838 0.066751234 -0.093831405 0.04589686 0.018317157 -0.03634402 -0.2074141 -0.04408644
-0.026347036 0.099446155 0.00550825 0.050475705 0.034326125 -0.040487055 -0.026816731 -0.08382195
0.06661874 0.09506453 -0.20725377 -0.12306085 -0.01957778 -0.11547433 0.06101068 0.07041237
0.00759954 -0.05998071 -0.0077066487 0.0654154 0.0031884392 0.003576777 -0.03765105 0.11398518
0.012187691 -0.014949299 0.025697276 -0.10938539 0.0117171835 -0.11648445 -0.18129353 0.13360749
0.06835853 -0.022090247 -0.038244832 -0.088586316 -0.03164499 -0.069748014 0.016229672 0.020852434
-0.035051666 0.049939755 0.08419276 -0.025869736 0.09356007 0.0058668125 -0.009073657 0.007309918
-0.038599756 -0.048472904 0.07087207 0.13591187 -0.14923614 -0.035481326 0.109755464 -0.06436978
0.07238745 0.097117685 0.05657109 -0.024649085 0.028280107 -0.10118274 0.11020713 -0.17835423
-0.042941865 -0.1364235 -0.17486075 -0.016707039 -0.10236695 -0.01592926 0.15065728 -0.00010805046
-0.08691072 -0.014016776 0.038830984 0.0591781 -0.04925517 -0.08141052 -0.06431898 0.02869857
-0.012060287 0.07508253 0.05308114 0.03379732 -0.07283778 0.03803021 0.059953306 0.0058307815
0.114046104 -0.023338413 -0.0059279264 -0.040113628 -0.016240563 0.02507699 0.00527136 -0.014011824
0.001826783 -0.075319484 0.007810263 -0.0014329235 -0.002410036 0.0876692 -0.0080518285 0.13141634
0.092956856 -0.021323262 -0.010665811 0.08703693 0.08862187 0.08446423 -0.11078908 0.0127603775
-0.054371506 0.05117603 -0.023307066 0.09022546 0.014502885 -0.009372586 0.046988647 0.059798438
0.1974911 0.13218713 0.010209142 0.035153385 -0.02848647 0.10175661 -0.0054103998 0.008750872
0.030039733 -0.111244895 0.041486073 0.015482533 0.11359806 -0.06623144 0.052652005 -0.07125542
0.09885075 0.011394656 0.016431727 0.060110822 0.06417847 0.058649853 -0.16793448 -0.0070570274
-0.14394943 0.029719908 -0.045170344 0.06466667 -0.073947474 -0.13109083 -0.08368047 0.0031564625
-0.15971333 -0.012118299 -0.14921382 0.15134956 -0.050972294 0.010287976 -0.12262383 0.11461384
-0.13853778 0.08735533 0.03767681 0.10021812 0.01210037 0.03733944 -0.037689455 0.019044388
-0.0060737845 -0.048037175 -0.014781828 0.04234537 -0.0114708515 -0.09163934 -0.013901302 -0.056976948
00000000: 4a1b 183e bdfa f8bb e756 b03d 0c57 cabd
00000010: e56b be3d f88b 473d a5a8 ca3d 76a5 11bd
00000020: 91a2 1bbe 3a75 923d b5ef 283a 96ee b7bb
00000030: 6624 223e f827 02be 3952 d2bd a803 143e
00000040: ad46 fa3c bd9c 853d 0105 c0bd 7ba2 c4bd
00000050: 0af8 75bc e118 bcbd a2c4 ad3d 1f8c 2fbd
00000060: ebe6 d83a 5e89 06bd 5f69 143e 96e3 39be
00000070: 8986 e63b 5847 553d 4ba5 f93c 422b 40be
00000080: 955e edbc fe26 433d 841a aa3c 3923 9a3d
00000090: 6c8f 5b3d 8938 7f3d 7486 b3bc fae1 b83d
000000a0: 9a38 173c 63c4 5c3d e632 01be c9c2 19bc
000000b0: d8a3 1dbc 113f dcbd 4bed 013c a41a ab3e
000000c0: 17fd 273d 50dd ec3c 4728 013c 7dcc 353d
000000d0: e53f 02bd 139b 3fbc a80a 8fbd e0bb c3bc
000000e0: 6264 743d ab14 ca3d 9d69 7c3d a44d e03c
000000f0: f488 923d 3adb 143b 74d6 4b3d 611b c6bd
00000100: 06a0 6a3d 4495 31bd 8476 b13b 4561 75bc
00000110: c475 7fb8 0de8 b83d 7007 aabd 083d 843c
00000120: c304 7b3d dfb4 883d ae2a c0bd 59fe 3b3d
00000130: dd0d 963c 78dd 14bd 5d64 54be fc93 34bd
00000140: bdd5 d7bc 6daa cb3d 8d7e b43b 9dbf 4e3d
00000150: 8d99 0c3d c1d5 25bd c3ae dbbc d8aa abbd
00000160: 686f 883d 31b1 c23d 553a 54be 5407 fcbd
00000170: 9561 a0bc ce7d ecbd 56e6 793d 5c34 903d
00000180: 9005 f93b 55ae 75bd 0e88 fcbb 82f8 853d
00000190: 22f5 503b 5c68 6a3b fd37 1abd 1071 e93d
000001a0: e2ae 473c e8ed 74bc 1883 d23c 7305 e0bd
000001b0: 6ef9 3f3c 668f eebd 03a5 39be 67d0 083e
000001c0: 8fff 8b3d 9bf6 b4bc 9da6 1cbd be6c b5bd
000001d0: 2d9e 01bd 0cd8 8ebd 17f4 843c b9d2 aa3c
000001e0: 5692 0fbd a18d 4c3d 416d ac3d c5ec d3bc
000001f0: 6c9c bf3d 643e c03b ada9 14bc 0988 ef3b
00000200: c71a 1ebd 868b 46bd 6025 913d 7b2c 0b3e
00000210: 5cd1 18be de54 11bd 79c7 e03d 4ed4 83bd
00000220: df3f 943d a3e5 c63d 16b7 673d e1ec c9bc
00000230: afab e73c e538 cfbd 47b4 e13d 7ea2 36be
00000240: cfe3 2fbd 9ab2 0bbe b20e 33be 33dd 88bc
00000250: c3a5 d1bd 147e 82bc e745 1a3e 2699 e2b8
00000260: 3ffe b1bd 9fa6 65bc 3d0d 1f3d bc64 723d
00000270: cabf 49bd 8fba a6bd abb9 83bd 4319 eb3c
00000280: 8398 45bc dfc4 993d 9c6b 593d 0f6f 0a3d
00000290: f92b 95bd 91c5 1b3d 9991 753d 2410 bf3b
000002a0: 0191 e93d 3330 bfbc 0d3f c2bb 304e 24bd
000002b0: ee0a 85bc 426e cd3c 5fbb ac3b d991 65bc
000002c0: aa70 ef3a 1a41 9abd 3ced ff3b efd0 bbba
000002d0: b2f1 1dbb e98b b33d d1eb 03bc 0192 063e
000002e0: 2a60 be3d 1fae aebc a7bf 2ebc 6b40 b23d
000002f0: 627f b53d 95fb ac3d 63e5 e2bd e710 513c
00000300: a8b4 5ebd f59d 513d 76ee bebc 20c8 b83d
00000310: 829d 6d3c 7a8f 19bc 2b77 403d 35ef 743d
00000320: 1b3b 4a3e 105c 073e 3f44 273c fffc 0f3d
00000330: 755c e9bc c565 d03d b949 b1bb d15f 0f3c
00000340: e315 f63c 5dd4 e3bd 4ded 293d 73aa 7d3c
00000350: 1aa6 e83d 59a4 87bd a1a9 573d 5dee 91bd
00000360: 4372 ca3d a7b0 3a3c d49b 863c c436 763d
00000370: 0070 833d d43a 703d 04f7 2bbe a33e e7bb
00000380: 7b67 13be 2a77 f33c 8a04 39bd f66f 843d
00000390: c671 97bd ad3c 06be ab60 abbd a7dc 4e3b
000003a0: e48b 23be d48b 46bc 82cb 18be 61fb 1a3e
000003b0: 53c8 50bd e68e 283c 3422 fbbd a9ba ea3d
000003c0: d9dc 0dbe 5ae7 b23d 0053 1a3d 283f cd3d
000003d0: a140 463c 3ef1 183d 4260 1abd fa02 9c3c
000003e0: 9906 c7bb a1c2 44bd 7b2f 72bc 5772 2d3d
000003f0: 3df0 3bbc 68ad bbbd 49c2 63bc a960 69bd

network_body._body_endoder.seq_layers.2.bias f4 [128]
-0.0068962853 0.010309437 -0.022819534 -0.013543826 -0.0044036093 0.0012003595 0.0014003384 0.012005678
0.0010916357 0.008021746 -0.003879544 -0.009971257 -0.009392691 -0.007482656 -0.0037153938 0.0035225088
-0.014015924 -0.0044822386 -0.008627243 0.008626863 0.002882931 0.0014344256 -0.002350193 -0.0060686762
0.0034723352 -0.00027422266 -0.018035512 -0.0069523477 0.01570558 -0.0038193485 0.0078852605 -0.0041913665
0.011668513 -0.006528266 0.0054305033 -0.014634122 -0.010374701 0.004571644 -0.009317046 0.0064077536
0.012453093 -0.009032506 0.008151876 0.013853531 -0.012349411 -0.010847676 -0.018694904 0.007244902
-0.0149570145 0.0004916845 -0.018297322 0.009710972 0.0028121138 0.012384355 0.006999673 0.0010378887
0.010078769 -0.011154061 -0.008085018 0.008742422 -0.005650588 0.004060727 -0.0063330373 -0.0066800755
0.012613612 -0.0074929353 -0.008273489 0.012807238 0.007423544 -0.004535186 -0.0065884856 -0.011406152
0.0029418208 0.00988908 -0.0070747156 -0.002147343 0.004857584 0.002134478 0.017080624 -0.002624656
0.009355962 0.010404087 -0.007259135 0.0012628142 0.0119556505 -0.016173478 -0.008162622 0.0054754685
-0.006618859 0.0012361868 0.017030928 -0.002509802 -0.0052173734 -0.004770306 -0.004442449 -0.020380065
-0.0015222413 0.0091271205 0.0008502779 0.0005828126 -0.0050898637 0.0035973699 0.013292656 0.008782074
-0.009384517 -0.005929821 -0.0037989889 0.0060344487 -0.010343358 -0.009810919 -0.004019566 0.013361021
-0.0053773327 -0.0075797294 0.007043982 -0.012246923 0.007851959 0.012600619 -0.00047192824 -0.0021007017
-0.0024300637 0.009387145 -0.007173216 0.007866365 0.010985945 0.0204513 0.012541095 0.007517304
00000000: 3cfa e1bb eae8 283c 08f0 babc ece6 5dbc
00000010: 274c 90bb 6255 9d3a 8f8b b73a 77b3 443c
00000020: 3715 8f3a a46d 033c f33f 7ebb 7c5e 23bc
00000030: cde3 19bc 1131 f5bb f77d 73bb e4d9 663b
00000040: 0ca3 65bc bedf 92bb 4859 0dbc b057 0d3c
00000050: 8eef 3c3b 5603 bc3a b205 1abb bfdb c6bb
00000060: 1e90 633b 8bc5 8fb9 36bf 93bc 85d0 e3bb
00000070: fda8 803c 094e 7abb 2e31 013c bb57 89bb
00000080: 4a2d 3f3c 10eb d5bb 5df2 b13b f5c3 6fbc
00000090: a6fa 29bc bbcd 953b 86a6 18bc 22f8 d13b
000000a0: 0f08 4c3c 13fd 13bc 728f 053c ecf9 623c
000000b0: 2f55 4abc 73ba 31bc 0e26 99bc a566 ed3b
000000c0: 440e 75bc 63e4 003a 44e4 95bc c51a 1f3c
000000d0: 714b 383b c0e7 4a3c 835d e53b c409 883a
000000e0: 6c21 253c 86bf 36bc 0677 04bc 603c 0f3c
000000f0: 9128 b9bb d90f 853b 5e85 cfbb 89e4 dabb
00000100: 53a9 4e3c 4c87 f5bb 878d 07bc 73d5 513c
00000110: 3341 f33b e69b 94bb 39e4 d7bb dee0 3abc
00000120: 90cb 403b cf05 223c 04d3 e7bb 70ba 0cbb
00000130: 5e2c 9f3b 99e2 0b3b aaec 8b3c 6c02 2cbb
00000140: c049 193c e775 2a3c 0ade edbb 0385 a53a
00000150: a2e1 433c 3e7e 84bc 85bc 05bc 8f6b b33b
00000160: 03e3 d8bb 8c07 a23a 7284 8b3c 7e7b 24bb
00000170: 80f6 aabb 3a50 9cbb f791 91bb 18f4 a6bc
00000180: f185 c7ba eb89 153c 2fe5 5e3a e4c7 183a
00000190: dfc8 a6bb dac1 6b3b 71c9 593c b0e2 0f3c
000001a0: 84c1 19bc f24e c2bb 75f8 78bb a0bc c53b
000001b0: 3077 29bc fabd 20bc 90b6 83bb 2fe8 5a3c
000001c0: 5634 b0bb 615f f8bb 34d1 e63b 51a7 48bc
000001d0: 81a5 003c d472 4e3c 236d f7b9 edab 09bb
000001e0: b441 1fbb 8acc 193c 4c0d ebbb ede1 003c
000001f0: 65fe 333c 7c89 a73c 2a79 4d3c b753 f63b

action_model._continuous_distribution.log_sigma f4 [1, 2]
-0.033669706 -0.0005376976
00000000: 3fe9 09bd 46f4 0cba

action_model._continuous_distribution.mu.weight f4 [2, 128]
-0.019097822 0.038465757 -0.032641202 -0.03260702 -0.014823341 -0.0065741627 -0.0059093004 0.027757801
-0.006506066 0.025673466 -0.004460366 -0.01302188 -0.016533662 -0.0044034836 0.0034356206 -0.0039185574
-0.018439414 -0.023880022 -0.030545175 0.034684487 0.014853765 -0.0028346954 -0.006497143 -0.008737913
-0.0061091287 0.0046785832 -0.025488067 -0.010257951 0.012714264 -0.030146435 0.016024707 -0.005316175
0.042430654 -0.0014592516 0.019468995 -0.020501217 -0.03253797 0.019377287 -0.005971189 0.0059921057
0.0045007863 -0.021014867 0.014138448 0.029423714 -0.026798205 -0.019860562 -0.033578962 0.016751759
-0.014748474 0.011673532 -0.022500435 0.026374884 0.0143503025 0.03603952 0.016089186 -0.0111956345
0.003301148 -0.015328315 -0.0039980235 0.016510595 -0.04213109 0.012352391 -0.02058884 -0.008767659
0.024600254 -0.00059329404 -0.041221812 0.034897726 0.0049132337 -0.015610509 -0.029622084 -0.010136881
0.004055409 0.018364165 -0.016978256 -0.011835906 0.013970427 -0.00839302 0.008019175 0.0018733243
0.016034363 0.0100827105 -0.019374127 0.001708588 0.025915029 0.0002413018 -0.024555217 0.014358496
-0.00987136 -0.032855574 0.05739375 0.003258429 -0.01470613 -0.007668828 -0.014874897 -0.008149633
-0.011861262 0.011106115 0.00638849 -0.004976232 -0.004427101 0.009935101 0.024426524 0.02100031
-0.023820614 -0.03502764 -0.00074488064 -0.0027739732 -0.030006647 -0.011960683 -0.015711714 0.0035147483
-0.01365376 -0.01615212 0.01020604 -0.03236693 0.0070015215 0.018824328 2.9032512e-05 -0.029510962
-0.05000516 0.004744078 -0.03605543 0.014560054 0.021606235 0.028108332 0.023148015 0.05538803
-0.013887453 -0.021122871 0.0049046357 0.006850249 -0.026278013 0.0011822613 0.031899393 -0.013416569
-0.033317268 -3.5030553e-05 -0.024080355 0.0027476698 -0.0035262296 0.02647231 -0.0062224045 -0.016345877
-0.013513979 -0.04063234 -0.01672676 -0.001132595 -0.006591192 0.010748999 -0.018869374 -0.002951657
-0.0014403603 0.02927476 0.0084723905 0.0059032785 -0.053487074 -0.018059932 -0.017857172 -0.019513287
0.0043075834 -0.010639421 -0.01102419 -0.0020325915 -0.005769582 0.030304117 0.009938508 0.002179474
0.0036585622 -0.008489532 0.006255002 -0.016591206 0.014054908 0.025615016 0.009174245 -0.008263925
0.02333957 -0.006484759 0.01338823 -0.023958988 0.054324355 -0.0053868103 -0.04688738 -0.0120124305
0.026515333 0.024245935 0.014167528 0.014309 -0.02055114 -0.017930673 -0.0030119673 -0.0035747162
0.010685043 0.008498886 -0.004160543 0.016881704 0.01025449 -0.017250732 -0.02281978 0.0030984327
0.00022430859 0.007930007 0.017592916 -0.015755542 0.0034455368 -0.03268794 -0.037195623 0.012025733
-0.006574935 0.051044356 -0.020907817 0.03544635 0.010936232 0.01811179 -0.02507776 0.004009374
-0.014916699 -0.029262971 0.0004442466 0.012846629 -0.0057790955 0.003381989 0.014829922 0.014922425
-0.019084893 -0.018262057 0.012533643 -0.01663876 0.026954884 0.027860701 0.00048067572 0.03186424
-0.009993875 -0.02572576 0.021520048 -0.054148335 0.022660738 -0.0071022646 -0.03018796 0.010252598
-0.008940932 -0.026632002 0.006994279 -0.016127132 -0.0031269204 0.012241852 -0.017619655 -0.030197984
0.047381114 -0.004709752 0.020523876 0.0048162155 -0.00047685325 -0.020004604 0.0067795473 -0.028825188
00000000: 0973 9cbc 458e 1d3d c8b2 05bd f08e 05bd
00000010: 99dd 72bc 136c d7bb cea2 c1bb 5464 e33c
00000020: d630 d5bb 2951 d23c 4328 92bb b959 55bc
00000030: 9a71 87bc 194b 90bb 2628 613b 3e67 80bb
00000040: 410e 97bc 09a0 c3bc e039 fabc 5211 0e3d
00000050: 355d 733c 4cc6 39bb fce5 d4bb 7729 0fbc
00000060: 162f c8bb cd4e 993b 5acc d0bc f710 28bc
00000070: 7d4f 503c a8f5 f6bc 3f46 833c 4f33 aebb
00000080: c4cb 2d3d 5c44 bfba 717d 9f3c 2bf2 a7bc
00000090: 8946 05bd 1ebd 9e3c f7a9 c3bb 6d59 c43b
000000a0: 557b 933b 5f27 acbc f3a4 673c 000a f13c
000000b0: e987 dbbc 9eb2 a2bc 188a 09bd fc3a 893c
000000c0: 95a3 71bc 5842 3f3c d552 b8bc 2410 d83c
000000d0: 881d 6b3c 2d9e 133d 78cd 833c e56d 37bc
000000e0: 1358 583b 9d23 7bbc da01 83bb 3a41 873c
000000f0: a691 2cbd af61 4a3c eda9 a8bc 3aa6 0fbc
00000100: 7986 c93c 4a87 1bba 34d8 28bd ebf0 0e3d
00000110: 31ff a03b 38c3 7fbc 03aa f2bc 2915 26bc
00000120: 3de3 843b 7270 963c fc15 8bbc 63eb 41bc
00000130: 38e4 643c e182 09bc dc62 033c 558a f53a
00000140: 7f5a 833c f431 253c 7db6 9ebc b3f2 df3a
00000150: c14b d43c f505 7d39 0628 c9bc e63f 6b3c
00000160: 7cbb 21bc 9193 06bd b515 6b3d 5e8b 553b
00000170: fbf1 70bc cb4a fbbb d7b5 73bc 0a86 05bc
00000180: bd55 42bc 6cf6 353c 8a56 d13b a90f a3bb
00000190: 3711 91bb d5c6 223c 221a c83c d808 ac3c
000001a0: 7323 c3bc 2579 0fbd 1844 43ba 8ccb 35bb
000001b0: 80d0 f5bc bef6 43bc dab5 80bc b157 663b
000001c0: 05b4 5fbc 7351 84bc 3c37 273c 3093 04bd
000001d0: 056d e53b 7a35 9a3c d88a f337 f9c0 f1bc
000001e0: 36d2 4cbd 3674 9b3b dcae 13bd 4b8d 6e3c
000001f0: 8fff b03c 7243 e63c e8a0 bd3c 8fde 623d
00000200: 3388 63bc df09 adbc 11b7 a03b 0e78 e03b
00000210: fd44 d7bc 1bf6 9a3a f0a8 023d 2bd1 5bbc
00000220: b077 08bd c5ed 12b8 2a44 c5bc 4012 343b
00000230: 5118 67bb 75dc d83c 50e5 cbbb cae7 85bc
00000240: bc69 5dbc 196e 26bd 8f06 89bc 9573 94ba
00000250: edfa d7bb 921c 303c f293 9abc 9670 41bb
00000260: 79ca bcba 9fd1 ef3c c8cf 0a3c 4a70 c13b
00000270: 4315 5bbd 6cf2 93bc 3449 92bc 54da 9fbc
00000280: a126 8d3b f750 2ebc ce9e 34bc 3a35 05bb
00000290: c30e bdbb 5740 f83c 20d5 223c 82d5 0e3b
000002a0: 7dc4 6f3b ae17 0bbc c3f6 cc3b 48ea 87bc
000002b0: 8f46 663c 95d6 d13c 934f 163c 6a65 07bc
000002c0: a032 bf3c 1a7e d4bb 4f5a 5b3c a445 c4bc
000002d0: 3783 5e3d d783 b0bb fb0c 40bd c9cf 44bc
000002e0: af36 d93c 699f c63c eb1e 683c 4c70 6a3c
000002f0: dd5a a8bc 59e3 92bc 6d64 45bb c945 6abb
00000300: 5210 2f3c e93e 0b3c 2a55 88bb 804b 8a3c
00000310: 7302 283c 6851 8dbc 8cf0 babc 130f 4b3b
00000320: 6134 6b39 dcec 013c 051f 903c c411 81bc
00000330: 84ce 613b cae3 05bd 705a 18bd 9407 453c
00000340: 8d72 d7bb e313 513d df46 abbc 3130 113d
00000350: e22d 333c 2d5f 943c e06f cdbc 1161 833b
00000360: 2c65 74bc e6b8 efbc c5e9 e839 ab7a 523c
00000370: 915e bdbb 5ca4 5d3b 33f9 723c 307d 743c
00000380: ec57 9cbc 4f9a 95bc e959 4d3c 024e 88bc
00000390: 7dd0 dc3c 203c e43c 3403 fc39 1484 023d
000003a0: 5abd 23bc d4be d2bc d04a b03c a5ca 5dbd
000003b0: 03a3 b93c 1dba e8bb be4c f7bc 83fa 273c
000003c0: fd7c 12bc 5b2b dabc 4430 e53b 0c1d 84bc
000003d0: 05ed 4cbb 0c92 483c 1857 90bc c361 f7bc
000003e0: b312 423d 4354 9abb b021 a83c 58d1 9d3b
000003f0: 2902 fab9 b2e0 a3bc f726 de3b cd22 ecbc

action_model._continuous_distribution.mu.bias f4 [2]
0.010885376 -0.002464174
00000000: 9358 323c fb7d 21bb

action_model._discrete_distribution.branches.0.weight f4 [5, 128]
0.00852048 -0.011610063 -0.020100784 -0.004322195 -0.0032231803 -0.0006098781 0.0061816974 -0.008321254
-0.0016863567 -0.0029596686 0.00091339974 0.0026339276 0.009213851 -0.00156784 -0.006234805 0.0013626887
-0.017836591 -0.013314315 -0.0018430355 0.0064595314 -0.016397525 0.008259126 0.01576553 0.0074295183
-0.0007177521 -0.004250122 -0.018323572 -0.011201627 0.011577002 0.004146186 -0.0056806663 0.01918408
-0.005193526 -0.0012573358 -0.002592704 0.007322631 -0.004608383 0.017426608 0.003604566 -0.009469337
-0.012377684 -0.005962027 0.003749146 0.009658522 0.003551726 0.0034385393 1.4585863e-05 -0.011523595
0.01144565 -0.0039539034 -0.0054016653 -0.0022764606 -0.0142120095 0.010836368 0.012780546 -0.010010642
0.023003245 -0.0070880954 -0.011891083 -0.016211763 0.00016007689 -0.0017286252 -0.011464625 0.008870763
0.0148123335 -0.003574266 -0.020814061 0.011723209 -0.011246978 -0.011471031 -0.02805206 -0.0072752223
-0.029244857 -0.004797276 0.0063330675 -0.014348597 -0.0057560652 0.005228816 0.002423049 -0.013149867
0.008045751 0.014719462 0.0015732269 0.005081574 -0.008789595 0.0006719661 -0.009555741 0.013877798
0.0022842265 -0.02043199 0.0029509442 -0.006228081 -0.014903449 -0.018422889 0.0062434548 -0.00066639105
-0.005433286 0.008158757 -0.01284375 -0.0018566706 -0.008348224 0.0003367288 -0.010826848 0.0052473317
-0.0076009436 -0.0017728506 0.007276028 -0.0015902896 0.015029568 -0.0052726287 -0.010408066 -0.021152457
-0.00021903357 -0.00862458 -0.0074171145 0.0030535988 -0.003804367 -0.015248582 -0.0074763657 -0.005867447
-0.0044883303 0.0055456087 0.01274755 0.017026467 -0.0033075733 -0.008417933 0.016071264 -0.007986399
-0.008930485 0.008607068 0.0054287273 -0.014571614 0.016622994 0.001750221 0.004238964 -0.008600056
-0.0039263926 -0.00940364 0.0023854678 0.004139738 0.014312809 0.0075299502 0.00022846459 -0.004256037
-0.0051601036 0.012012704 0.021394951 0.0038765643 0.0051697306 -0.010391603 -0.019807225 0.0022948398
0.0064810575 -0.008833003 -0.0009426834 0.012334145 0.013369041 0.01948786 -0.017964587 0.010815275
0.0090299705 0.00377004 0.011432797 -0.006023998 -0.0019435219 -0.010333487 0.008801988 -0.013998413
-0.017878713 0.001786626 -0.0150962025 -0.017401436 -0.006055961 -0.01914157 0.019342132 -0.008696416
-0.010345595 0.022988938 0.009657855 0.0047249477 -0.005994611 -0.008075025 0.0036336095 0.011317032
0.003943702 -6.8338435e-05 -0.005396802 -0.019371906 0.0034364513 -0.0016368853 -0.0026979856 -0.0022942687
-0.0003410277 -0.00068795437 0.0029651606 0.00089610624 0.0017282518 -0.0066097025 -0.0012747158 -0.0018641298
-0.012640918 -0.003452629 -0.00014390556 -0.0006768298 -0.017145023 0.0012093639 -0.016454034 -0.0036267836
-0.0023806223 -0.0033261487 -0.012978062 -0.0054556374 -0.01863305 0.0147474995 -0.00310862 -0.006283904
0.005491829 -0.0035512997 -0.0066512586 0.014175956 0.0006373974 0.006585275 -0.01596452 0.0040447083
0.011402494 -0.004985298 0.00816981 0.008389335 -0.0067295553 0.0065145986 -0.00833783 -0.0041271737
-0.0035934732 -0.0098791905 0.004268782 0.0052095284 -0.0030335458 0.013878147 1.4670068e-05 0.024170633
-0.004745106 0.007432346 -0.0029683618 0.0071010836 -0.01345348 -0.018583633 0.0018592897 0.0070503643
0.008218585 0.0036589 0.010207964 -0.023412328 0.014763782 0.013686357 -0.000186106 0.0070946906
00000000: 7c99 0b3c 2238 3ebc 66aa a4bc 33a1 8dbb
00000010: fe3b 53bb 3ae0 1fba d68f ca3b de55 08bc
00000020: be08 ddba 00f7 41bb 3871 6f3a f99d 2c3b
00000030: b1f5 163c fb7f cdba 564d ccbb 3f9c b23a
00000040: 0b1e 92bc 4924 5abc 0292 f1ba 7aaa d33b
00000050: 1a54 86bc 4951 073c b626 813c 5173 f33b
00000060: 8727 3cba 9b44 8bbb 511b 96bc 0787 37bc
00000070: 77ad 3d3c bbdc 873b e224 babb ef27 9d3c
00000080: 742e aabb 30cd a4ba 5bea 29bb aef2 ef3b
00000090: eb01 97bb 3fc2 8e3c 953a 6c3b 4725 1bbc
000000a0: c5cb 4abc 1b5d c3bb 3bb4 753b c73e 1e3c
000000b0: 13c4 683b 1e59 613b ceb5 7437 76cd 3cbc
000000c0: 8986 3b3c bf8f 81bb 7400 b1bb ac30 15bb
000000d0: 7dd9 68bc 068b 313c 7f65 513c ad03 24bc
000000e0: 4d71 bc3c 4143 e8bb d1d2 42bc 88ce 84bc
000000f0: 50da 2739 0993 e2ba 1fd6 3bbc ad56 113c
00000100: 6eaf 723c 3c3e 6abb 4082 aabc b412 403c
00000110: 3f45 38bc fef0 3bbc 6fcd e5bc fd64 eebb
00000120: e992 efbc 7832 9dbb 9f85 cf3b 6116 6bbc
00000130: 609d bcbb 7d56 ab3b 04cc 1e3b 8a72 57bc
00000140: 53d2 033c e629 713c bc34 ce3a 5583 a63b
00000150: 3c02 10bc e226 303a af8f 1cbc b45f 633c
00000160: f6b2 153b fd60 a7bc a164 413b ee14 ccbb
00000170: 992d 74bc 99eb 96bc e595 cc3b bfb0 2eba
00000180: b509 b2bb 4fac 053c 986e 52bc 875b f3ba
00000190: fdc6 08bc f98a b039 1863 31bc cff1 ab3b
000001a0: 5611 f9bb ff5e e8ba bf6b ee3b 4471 d0ba
000001b0: 943e 763c 04c6 acbb 9886 2abc eb47 adbc
000001c0: 60ac 65b9 1c4e 0dbc 440b f3bb e31e 483b
000001d0: b052 79bb 30d5 79bc 4dfc f4bb b643 c0bb
000001e0: d812 93bb f0b7 b53b 1adb 503c 177b 8b3c
000001f0: dfc3 58bb 5feb 09bc e2a7 833c 63d9 02bc
00000200: 2b51 12bc a904 0d3c 77e3 b13b c7bd 6ebc
00000210: f22c 883c ac67 e53a 02e7 8a3b 40e7 0cbc
00000220: f8a8 80bb ba11 1abc 8255 1c3b a4a6 873b
00000230: 4680 6a3c cdbd f63b ff8f 6f39 3a76 8bbb
00000240: 1616 a9bb efd0 443c 7744 af3c f50d 7e3b
00000250: d866 a93b 8b41 2abc c342 a2bc 0665 163b
00000260: 0d5f d43b 4db8 10bc 691e 77ba 2715 4a3c
00000270: d209 5b3c 01a5 9f3c 782a 93bc 8d32 313c
00000280: 71f2 133c c712 773b a050 3b3c f564 c5bb
00000290: c6bd feba c94d 29bc 3736 103c 9a59 65bc
000002a0: 6176 92bc 382d ea3a 1056 77bc 758d 8ebc
000002b0: 1571 c6bb c8ce 9cbc 6473 9e3c 6a7b 0ebc
000002c0: 9280 29bc 4c53 bc3c fb3b 1e3c bcd3 9a3b
000002d0: 716e c4bb 1c4d 04bc da21 6e3b 136b 393c
000002e0: 2c3a 813b eb50 8fb8 a8d7 b0bb d5b1 9ebc
000002f0: 1636 613b c28c d6ba b0d0 30bb 715b 16bb
00000300: f7cb b2b9 d657 34ba 2453 423b ace8 6a3a
00000310: 8286 e23a 3496 d8bb 5d14 a7ba d155 f4ba
00000320: da1b 4fbc 8145 62bb 5be5 16b9 476d 31ba
00000330: b873 8cbc 8583 9e3a 9cca 86bc 55af 6dbb
00000340: 3704 1cbb 84fb 59bb f0a1 54bc 34c5 b2bb
00000350: 57a4 98bc 7f9f 713c fdb9 4bbb 35e9 cdbb
00000360: cdf4 b33b ecbc 68bb cdf2 d9bb 4542 683c
00000370: 0417 273a 4ac9 d73b 06c8 82bc 7989 843b
00000380: 87d1 3a3c b65b a3bb abda 053c 6c73 093c
00000390: 9a83 dcbb 6a78 d53b 659b 08bc 3e3d 87bb
000003a0: 7a80 6bbb 54dc 21bc 24e1 8b3b b1b4 aa3b
000003b0: 74ce 46bb 2b61 633c 761f 7637 7e01 c63c
000003c0: d67c 9bbb 0a8b f33b d988 42bb 35b0 e83b
000003d0: fc6b 5cbc b43c 98bc 69b3 f33a be06 e73b
000003e0: 3ea7 063c 28ca 6f3b 4e3f 273c 36cb bfbc
000003f0: cae3 713c be3c 603c 7325 43b9 947a e83b

action_model._discrete_distribution.branches.0.bias f4 [5]
0.002361348 -0.0063889474 0.0040813438 -0.00709629 0.0061925002
00000000: d8c0 1a3b 605a d1bb cbbc 853b ff87 e8bb
00000010: 75ea ca3b
